{"format": "graph-model", "generatedBy": "2.2.0", "convertedBy": "TensorFlow.js Converter v2.0.0", "userDefinedMetadata": {"signature": {"outputs": {"predictions": {"name": "predictions"}}}}, "modelTopology": {"node": [{"name": "SharedFeatureExtractor/resnet_v1_50/block4/unit_1/bottleneck_v1/conv2/weights", "op": "Const", "attr": {"dtype": {"type": "DT_FLOAT"}, "value": {"tensor": {"dtype": "DT_FLOAT", "tensorShape": {"dim": [{"size": "3"}, {"size": "3"}, {"size": "51"}, {"size": "51"}]}}}}}, {"name": "SharedFeatureExtractor/resnet_v1_50/block3/unit_1/bottleneck_v1/conv2/weights", "op": "Const", "attr": {"value": {"tensor": {"dtype": "DT_FLOAT", "tensorShape": {"dim": [{"size": "3"}, {"size": "3"}, {"size": "25"}, {"size": "25"}]}}}, "dtype": {"type": "DT_FLOAT"}}}, {"name": "FastPSPModule/ResizeBilinear/size", "op": "Const", "attr": {"value": {"tensor": {"dtype": "DT_INT32", "tensorShape": {"dim": [{"size": "2"}]}}}, "dtype": {"type": "DT_INT32"}}}, {"name": "SharedFeatureExtractor/resnet_v1_50/block3/unit_2/bottleneck_v1/conv2/weights", "op": "Const", "attr": {"value": {"tensor": {"dtype": "DT_FLOAT", "tensorShape": {"dim": [{"size": "3"}, {"size": "3"}, {"size": "25"}, {"size": "25"}]}}}, "dtype": {"type": "DT_FLOAT"}}}, {"name": "SharedFeatureExtractor/resnet_v1_50/block3/unit_3/bottleneck_v1/conv2/weights", "op": "Const", "attr": {"value": {"tensor": {"dtype": "DT_FLOAT", "tensorShape": {"dim": [{"size": "3"}, {"size": "3"}, {"size": "25"}, {"size": "25"}]}}}, "dtype": {"type": "DT_FLOAT"}}}, {"name": "SharedFeatureExtractor/resnet_v1_50/block3/unit_4/bottleneck_v1/conv2/weights", "op": "Const", "attr": {"value": {"tensor": {"dtype": "DT_FLOAT", "tensorShape": {"dim": [{"size": "3"}, {"size": "3"}, {"size": "25"}, {"size": "25"}]}}}, "dtype": {"type": "DT_FLOAT"}}}, {"name": "SharedFeatureExtractor/resnet_v1_50/block3/unit_5/bottleneck_v1/conv2/weights", "op": "Const", "attr": {"value": {"tensor": {"dtype": "DT_FLOAT", "tensorShape": {"dim": [{"size": "3"}, {"size": "3"}, {"size": "25"}, {"size": "25"}]}}}, "dtype": {"type": "DT_FLOAT"}}}, {"name": "SharedFeatureExtractor/resnet_v1_50/block3/unit_1/bottleneck_v1/conv2/SpaceToBatchND/paddings", "op": "Const", "attr": {"value": {"tensor": {"dtype": "DT_INT32", "tensorShape": {"dim": [{"size": "2"}, {"size": "2"}]}}}, "dtype": {"type": "DT_INT32"}}}, {"name": "SharedFeatureExtractor/resnet_v1_50/block3/unit_6/bottleneck_v1/conv2/weights", "op": "Const", "attr": {"value": {"tensor": {"dtype": "DT_FLOAT", "tensorShape": {"dim": [{"size": "3"}, {"size": "3"}, {"size": "25"}, {"size": "25"}]}}}, "dtype": {"type": "DT_FLOAT"}}}, {"name": "SharedFeatureExtractor/resnet_v1_50/block3/unit_1/bottleneck_v1/conv2/SpaceToBatchND/block_shape", "op": "Const", "attr": {"value": {"tensor": {"dtype": "DT_INT32", "tensorShape": {"dim": [{"size": "2"}]}}}, "dtype": {"type": "DT_INT32"}}}, {"name": "SharedFeatureExtractor/resnet_v1_50/block3/unit_1/bottleneck_v1/conv2/BatchToSpaceND/crops", "op": "Const", "attr": {"value": {"tensor": {"dtype": "DT_INT32", "tensorShape": {"dim": [{"size": "2"}, {"size": "2"}]}}}, "dtype": {"type": "DT_INT32"}}}, {"name": "SharedFeatureExtractor/resnet_v1_50/block4/unit_2/bottleneck_v1/conv2/weights", "op": "Const", "attr": {"value": {"tensor": {"dtype": "DT_FLOAT", "tensorShape": {"dim": [{"size": "3"}, {"size": "3"}, {"size": "51"}, {"size": "51"}]}}}, "dtype": {"type": "DT_FLOAT"}}}, {"name": "SharedFeatureExtractor/resnet_v1_50/block4/unit_1/bottleneck_v1/conv2/SpaceToBatchND/paddings", "op": "Const", "attr": {"value": {"tensor": {"dtype": "DT_INT32", "tensorShape": {"dim": [{"size": "2"}, {"size": "2"}]}}}, "dtype": {"type": "DT_INT32"}}}, {"name": "SharedFeatureExtractor/resnet_v1_50/block4/unit_3/bottleneck_v1/conv2/weights", "op": "Const", "attr": {"value": {"tensor": {"dtype": "DT_FLOAT", "tensorShape": {"dim": [{"size": "3"}, {"size": "3"}, {"size": "51"}, {"size": "51"}]}}}, "dtype": {"type": "DT_FLOAT"}}}, {"name": "SharedFeatureExtractor/resnet_v1_50/block4/unit_1/bottleneck_v1/conv2/SpaceToBatchND/block_shape", "op": "Const", "attr": {"dtype": {"type": "DT_INT32"}, "value": {"tensor": {"dtype": "DT_INT32", "tensorShape": {"dim": [{"size": "2"}]}}}}}, {"name": "SharedFeatureExtractor/resnet_v1_50/block4/unit_1/bottleneck_v1/conv2/BatchToSpaceND/crops", "op": "Const", "attr": {"value": {"tensor": {"dtype": "DT_INT32", "tensorShape": {"dim": [{"size": "2"}, {"size": "2"}]}}}, "dtype": {"type": "DT_INT32"}}}, {"name": "CascadeFeatureFusion/Interp/ResizeBilinear/size", "op": "Const", "attr": {"dtype": {"type": "DT_INT32"}, "value": {"tensor": {"dtype": "DT_INT32", "tensorShape": {"dim": [{"size": "2"}]}}}}}, {"name": "CascadeFeatureFusion/DilatedConv/weights", "op": "Const", "attr": {"value": {"tensor": {"dtype": "DT_FLOAT", "tensorShape": {"dim": [{"size": "3"}, {"size": "3"}, {"size": "51"}, {"size": "25"}]}}}, "dtype": {"type": "DT_FLOAT"}}}, {"name": "SharedFeatureExtractor/resnet_v1_50/block1/unit_3/bottleneck_v1/Pad/paddings", "op": "Const", "attr": {"value": {"tensor": {"dtype": "DT_INT32", "tensorShape": {"dim": [{"size": "4"}, {"size": "2"}]}}}, "dtype": {"type": "DT_INT32"}}}, {"name": "Interp/ResizeBilinear/size", "op": "Const", "attr": {"value": {"tensor": {"dtype": "DT_INT32", "tensorShape": {"dim": [{"size": "2"}]}}}, "dtype": {"type": "DT_INT32"}}}, {"name": "SharedFeatureExtractor/resnet_v1_50/Pad/paddings", "op": "Const", "attr": {"value": {"tensor": {"dtype": "DT_INT32", "tensorShape": {"dim": [{"size": "4"}, {"size": "2"}]}}}, "dtype": {"type": "DT_INT32"}}}, {"name": "CascadeFeatureFusion_1/Interp/ResizeBilinear/size", "op": "Const", "attr": {"value": {"tensor": {"dtype": "DT_INT32", "tensorShape": {"dim": [{"size": "2"}]}}}, "dtype": {"type": "DT_INT32"}}}, {"name": "CascadeFeatureFusion/DilatedConv/SpaceToBatchND/paddings", "op": "Const", "attr": {"dtype": {"type": "DT_INT32"}, "value": {"tensor": {"dtype": "DT_INT32", "tensorShape": {"dim": [{"size": "2"}, {"size": "2"}]}}}}}, {"name": "CascadeFeatureFusion_1/DilatedConv/weights", "op": "Const", "attr": {"value": {"tensor": {"dtype": "DT_FLOAT", "tensorShape": {"dim": [{"size": "3"}, {"size": "3"}, {"size": "25"}, {"size": "25"}]}}}, "dtype": {"type": "DT_FLOAT"}}}, {"name": "CascadeFeatureFusion/DilatedConv/SpaceToBatchND/block_shape", "op": "Const", "attr": {"value": {"tensor": {"dtype": "DT_INT32", "tensorShape": {"dim": [{"size": "2"}]}}}, "dtype": {"type": "DT_INT32"}}}, {"name": "CascadeFeatureFusion/DilatedConv/BatchToSpaceND/crops", "op": "Const", "attr": {"value": {"tensor": {"dtype": "DT_INT32", "tensorShape": {"dim": [{"size": "2"}, {"size": "2"}]}}}, "dtype": {"type": "DT_INT32"}}}, {"name": "inputs", "op": "Placeholder", "attr": {"dtype": {"type": "DT_UINT8"}, "shape": {"shape": {"dim": [{"size": "-1"}, {"size": "300"}, {"size": "300"}, {"size": "3"}]}}}}, {"name": "Preprocessor/sub/y", "op": "Const", "attr": {"value": {"tensor": {"dtype": "DT_FLOAT", "tensorShape": {"dim": [{"size": "1"}, {"size": "1"}, {"size": "3"}]}}}, "dtype": {"type": "DT_FLOAT"}}}, {"name": "CascadeFeatureFusion/strided_slice/stack_1", "op": "Const", "attr": {"value": {"tensor": {"dtype": "DT_INT32", "tensorShape": {"dim": [{"size": "1"}]}}}, "dtype": {"type": "DT_INT32"}}}, {"name": "CascadeFeatureFusion/strided_slice/stack", "op": "Const", "attr": {"value": {"tensor": {"dtype": "DT_INT32", "tensorShape": {"dim": [{"size": "1"}]}}}, "dtype": {"type": "DT_INT32"}}}, {"name": "Interp_1/ResizeBilinear/size", "op": "Const", "attr": {"value": {"tensor": {"dtype": "DT_INT32", "tensorShape": {"dim": [{"size": "2"}]}}}, "dtype": {"type": "DT_INT32"}}}, {"name": "Predictions/Conv/weights", "op": "Const", "attr": {"value": {"tensor": {"dtype": "DT_FLOAT", "tensorShape": {"dim": [{"size": "1"}, {"size": "1"}, {"size": "25"}, {"size": "2"}]}}}, "dtype": {"type": "DT_FLOAT"}}}, {"name": "Predictions/Conv/biases", "op": "Const", "attr": {"value": {"tensor": {"dtype": "DT_FLOAT", "tensorShape": {"dim": [{"size": "2"}]}}}, "dtype": {"type": "DT_FLOAT"}}}, {"name": "Predictions/Interp/ResizeBilinear/size", "op": "Const", "attr": {"value": {"tensor": {"dtype": "DT_INT32", "tensorShape": {"dim": [{"size": "2"}]}}}, "dtype": {"type": "DT_INT32"}}}, {"name": "ArgMax/dimension", "op": "Const", "attr": {"value": {"tensor": {"dtype": "DT_INT32", "tensorShape": {}}}, "dtype": {"type": "DT_INT32"}}}, {"name": "ExpandDims/dim", "op": "Const", "attr": {"value": {"tensor": {"dtype": "DT_INT32", "tensorShape": {}}}, "dtype": {"type": "DT_INT32"}}}, {"name": "Conv/Conv2D_weights", "op": "Const", "attr": {"value": {"tensor": {"dtype": "DT_FLOAT", "tensorShape": {"dim": [{"size": "3"}, {"size": "3"}, {"size": "3"}, {"size": "6"}]}}}, "dtype": {"type": "DT_FLOAT"}}}, {"name": "Conv/Conv2D_bn_offset", "op": "Const", "attr": {"value": {"tensor": {"dtype": "DT_FLOAT", "tensorShape": {"dim": [{"size": "6"}]}}}, "dtype": {"type": "DT_FLOAT"}}}, {"name": "SharedFeatureExtractor/resnet_v1_50/conv1/Conv2D_weights", "op": "Const", "attr": {"value": {"tensor": {"dtype": "DT_FLOAT", "tensorShape": {"dim": [{"size": "7"}, {"size": "7"}, {"size": "3"}, {"size": "6"}]}}}, "dtype": {"type": "DT_FLOAT"}}}, {"name": "SharedFeatureExtractor/resnet_v1_50/conv1/Conv2D_bn_offset", "op": "Const", "attr": {"value": {"tensor": {"dtype": "DT_FLOAT", "tensorShape": {"dim": [{"size": "6"}]}}}, "dtype": {"type": "DT_FLOAT"}}}, {"name": "Conv_1/Conv2D_weights", "op": "Const", "attr": {"value": {"tensor": {"dtype": "DT_FLOAT", "tensorShape": {"dim": [{"size": "3"}, {"size": "3"}, {"size": "6"}, {"size": "6"}]}}}, "dtype": {"type": "DT_FLOAT"}}}, {"name": "Conv_1/Conv2D_bn_offset", "op": "Const", "attr": {"value": {"tensor": {"dtype": "DT_FLOAT", "tensorShape": {"dim": [{"size": "6"}]}}}, "dtype": {"type": "DT_FLOAT"}}}, {"name": "SharedFeatureExtractor/resnet_v1_50/block1/unit_1/bottleneck_v1/conv1/Conv2D_weights", "op": "Const", "attr": {"dtype": {"type": "DT_FLOAT"}, "value": {"tensor": {"dtype": "DT_FLOAT", "tensorShape": {"dim": [{"size": "1"}, {"size": "1"}, {"size": "6"}, {"size": "6"}]}}}}}, {"name": "SharedFeatureExtractor/resnet_v1_50/block1/unit_1/bottleneck_v1/conv1/Conv2D_bn_offset", "op": "Const", "attr": {"dtype": {"type": "DT_FLOAT"}, "value": {"tensor": {"dtype": "DT_FLOAT", "tensorShape": {"dim": [{"size": "6"}]}}}}}, {"name": "CascadeFeatureFusion_1/DilatedConv/BatchNorm/FusedBatchNorm/Scaled", "op": "Const", "attr": {"value": {"tensor": {"dtype": "DT_FLOAT", "tensorShape": {"dim": [{"size": "25"}]}}}, "dtype": {"type": "DT_FLOAT"}}}, {"name": "SharedFeatureExtractor/resnet_v1_50/block1/unit_1/bottleneck_v1/shortcut/Conv2D_weights", "op": "Const", "attr": {"value": {"tensor": {"dtype": "DT_FLOAT", "tensorShape": {"dim": [{"size": "1"}, {"size": "1"}, {"size": "6"}, {"size": "25"}]}}}, "dtype": {"type": "DT_FLOAT"}}}, {"name": "SharedFeatureExtractor/resnet_v1_50/block1/unit_1/bottleneck_v1/shortcut/Conv2D_bn_offset", "op": "Const", "attr": {"value": {"tensor": {"dtype": "DT_FLOAT", "tensorShape": {"dim": [{"size": "25"}]}}}, "dtype": {"type": "DT_FLOAT"}}}, {"name": "Conv_2/Conv2D_weights", "op": "Const", "attr": {"value": {"tensor": {"dtype": "DT_FLOAT", "tensorShape": {"dim": [{"size": "3"}, {"size": "3"}, {"size": "6"}, {"size": "12"}]}}}, "dtype": {"type": "DT_FLOAT"}}}, {"name": "Conv_2/Conv2D_bn_offset", "op": "Const", "attr": {"value": {"tensor": {"dtype": "DT_FLOAT", "tensorShape": {"dim": [{"size": "12"}]}}}, "dtype": {"type": "DT_FLOAT"}}}, {"name": "CascadeFeatureFusion_1/DilatedConv/BatchNorm/FusedBatchNorm/Offset", "op": "Const", "attr": {"value": {"tensor": {"dtype": "DT_FLOAT", "tensorShape": {"dim": [{"size": "25"}]}}}, "dtype": {"type": "DT_FLOAT"}}}, {"name": "SharedFeatureExtractor/resnet_v1_50/block1/unit_1/bottleneck_v1/conv2/Conv2D_weights", "op": "Const", "attr": {"value": {"tensor": {"dtype": "DT_FLOAT", "tensorShape": {"dim": [{"size": "3"}, {"size": "3"}, {"size": "6"}, {"size": "6"}]}}}, "dtype": {"type": "DT_FLOAT"}}}, {"name": "SharedFeatureExtractor/resnet_v1_50/block1/unit_1/bottleneck_v1/conv2/Conv2D_bn_offset", "op": "Const", "attr": {"value": {"tensor": {"dtype": "DT_FLOAT", "tensorShape": {"dim": [{"size": "6"}]}}}, "dtype": {"type": "DT_FLOAT"}}}, {"name": "Conv_3/Conv2D_weights", "op": "Const", "attr": {"value": {"tensor": {"dtype": "DT_FLOAT", "tensorShape": {"dim": [{"size": "3"}, {"size": "3"}, {"size": "12"}, {"size": "25"}]}}}, "dtype": {"type": "DT_FLOAT"}}}, {"name": "Conv_3/Conv2D_bn_offset", "op": "Const", "attr": {"dtype": {"type": "DT_FLOAT"}, "value": {"tensor": {"dtype": "DT_FLOAT", "tensorShape": {"dim": [{"size": "25"}]}}}}}, {"name": "CascadeFeatureFusion/DilatedConv/BatchNorm/FusedBatchNorm/Scaled", "op": "Const", "attr": {"value": {"tensor": {"dtype": "DT_FLOAT", "tensorShape": {"dim": [{"size": "25"}]}}}, "dtype": {"type": "DT_FLOAT"}}}, {"name": "SharedFeatureExtractor/resnet_v1_50/block1/unit_1/bottleneck_v1/conv3/Conv2D_weights", "op": "Const", "attr": {"dtype": {"type": "DT_FLOAT"}, "value": {"tensor": {"dtype": "DT_FLOAT", "tensorShape": {"dim": [{"size": "1"}, {"size": "1"}, {"size": "6"}, {"size": "25"}]}}}}}, {"name": "SharedFeatureExtractor/resnet_v1_50/block1/unit_1/bottleneck_v1/conv3/Conv2D_bn_offset", "op": "Const", "attr": {"value": {"tensor": {"dtype": "DT_FLOAT", "tensorShape": {"dim": [{"size": "25"}]}}}, "dtype": {"type": "DT_FLOAT"}}}, {"name": "CascadeFeatureFusion_1/Conv/Conv2D_weights", "op": "Const", "attr": {"value": {"tensor": {"dtype": "DT_FLOAT", "tensorShape": {"dim": [{"size": "1"}, {"size": "1"}, {"size": "25"}, {"size": "25"}]}}}, "dtype": {"type": "DT_FLOAT"}}}, {"name": "CascadeFeatureFusion_1/Conv/Conv2D_bn_offset", "op": "Const", "attr": {"value": {"tensor": {"dtype": "DT_FLOAT", "tensorShape": {"dim": [{"size": "25"}]}}}, "dtype": {"type": "DT_FLOAT"}}}, {"name": "SharedFeatureExtractor/resnet_v1_50/block1/unit_2/bottleneck_v1/conv1/Conv2D_weights", "op": "Const", "attr": {"dtype": {"type": "DT_FLOAT"}, "value": {"tensor": {"dtype": "DT_FLOAT", "tensorShape": {"dim": [{"size": "1"}, {"size": "1"}, {"size": "25"}, {"size": "6"}]}}}}}, {"name": "CascadeFeatureFusion/DilatedConv/BatchNorm/FusedBatchNorm/Offset", "op": "Const", "attr": {"value": {"tensor": {"dtype": "DT_FLOAT", "tensorShape": {"dim": [{"size": "25"}]}}}, "dtype": {"type": "DT_FLOAT"}}}, {"name": "SharedFeatureExtractor/resnet_v1_50/block1/unit_2/bottleneck_v1/conv1/Conv2D_bn_offset", "op": "Const", "attr": {"value": {"tensor": {"dtype": "DT_FLOAT", "tensorShape": {"dim": [{"size": "6"}]}}}, "dtype": {"type": "DT_FLOAT"}}}, {"name": "SharedFeatureExtractor/resnet_v1_50/block1/unit_2/bottleneck_v1/conv2/Conv2D_weights", "op": "Const", "attr": {"value": {"tensor": {"dtype": "DT_FLOAT", "tensorShape": {"dim": [{"size": "3"}, {"size": "3"}, {"size": "6"}, {"size": "6"}]}}}, "dtype": {"type": "DT_FLOAT"}}}, {"name": "SharedFeatureExtractor/resnet_v1_50/block1/unit_2/bottleneck_v1/conv2/Conv2D_bn_offset", "op": "Const", "attr": {"dtype": {"type": "DT_FLOAT"}, "value": {"tensor": {"dtype": "DT_FLOAT", "tensorShape": {"dim": [{"size": "6"}]}}}}}, {"name": "SharedFeatureExtractor/resnet_v1_50/block1/unit_2/bottleneck_v1/conv3/Conv2D_weights", "op": "Const", "attr": {"value": {"tensor": {"dtype": "DT_FLOAT", "tensorShape": {"dim": [{"size": "1"}, {"size": "1"}, {"size": "6"}, {"size": "25"}]}}}, "dtype": {"type": "DT_FLOAT"}}}, {"name": "SharedFeatureExtractor/resnet_v1_50/block4/unit_3/bottleneck_v1/conv2/BatchNorm/FusedBatchNorm/Scaled", "op": "Const", "attr": {"dtype": {"type": "DT_FLOAT"}, "value": {"tensor": {"dtype": "DT_FLOAT", "tensorShape": {"dim": [{"size": "51"}]}}}}}, {"name": "SharedFeatureExtractor/resnet_v1_50/block1/unit_2/bottleneck_v1/conv3/Conv2D_bn_offset", "op": "Const", "attr": {"value": {"tensor": {"dtype": "DT_FLOAT", "tensorShape": {"dim": [{"size": "25"}]}}}, "dtype": {"type": "DT_FLOAT"}}}, {"name": "SharedFeatureExtractor/resnet_v1_50/block1/unit_3/bottleneck_v1/conv1/Conv2D_weights", "op": "Const", "attr": {"value": {"tensor": {"dtype": "DT_FLOAT", "tensorShape": {"dim": [{"size": "1"}, {"size": "1"}, {"size": "25"}, {"size": "6"}]}}}, "dtype": {"type": "DT_FLOAT"}}}, {"name": "SharedFeatureExtractor/resnet_v1_50/block1/unit_3/bottleneck_v1/conv1/Conv2D_bn_offset", "op": "Const", "attr": {"value": {"tensor": {"dtype": "DT_FLOAT", "tensorShape": {"dim": [{"size": "6"}]}}}, "dtype": {"type": "DT_FLOAT"}}}, {"name": "SharedFeatureExtractor/resnet_v1_50/block1/unit_3/bottleneck_v1/conv2/Conv2D_weights", "op": "Const", "attr": {"value": {"tensor": {"dtype": "DT_FLOAT", "tensorShape": {"dim": [{"size": "3"}, {"size": "3"}, {"size": "6"}, {"size": "6"}]}}}, "dtype": {"type": "DT_FLOAT"}}}, {"name": "SharedFeatureExtractor/resnet_v1_50/block4/unit_3/bottleneck_v1/conv2/BatchNorm/FusedBatchNorm/Offset", "op": "Const", "attr": {"value": {"tensor": {"dtype": "DT_FLOAT", "tensorShape": {"dim": [{"size": "51"}]}}}, "dtype": {"type": "DT_FLOAT"}}}, {"name": "SharedFeatureExtractor/resnet_v1_50/block1/unit_3/bottleneck_v1/conv2/Conv2D_bn_offset", "op": "Const", "attr": {"value": {"tensor": {"dtype": "DT_FLOAT", "tensorShape": {"dim": [{"size": "6"}]}}}, "dtype": {"type": "DT_FLOAT"}}}, {"name": "SharedFeatureExtractor/resnet_v1_50/block1/unit_3/bottleneck_v1/conv3/Conv2D_weights", "op": "Const", "attr": {"value": {"tensor": {"dtype": "DT_FLOAT", "tensorShape": {"dim": [{"size": "1"}, {"size": "1"}, {"size": "6"}, {"size": "25"}]}}}, "dtype": {"type": "DT_FLOAT"}}}, {"name": "SharedFeatureExtractor/resnet_v1_50/block1/unit_3/bottleneck_v1/conv3/Conv2D_bn_offset", "op": "Const", "attr": {"dtype": {"type": "DT_FLOAT"}, "value": {"tensor": {"dtype": "DT_FLOAT", "tensorShape": {"dim": [{"size": "25"}]}}}}}, {"name": "CascadeFeatureFusion/Conv/Conv2D_weights", "op": "Const", "attr": {"value": {"tensor": {"dtype": "DT_FLOAT", "tensorShape": {"dim": [{"size": "1"}, {"size": "1"}, {"size": "25"}, {"size": "25"}]}}}, "dtype": {"type": "DT_FLOAT"}}}, {"name": "CascadeFeatureFusion/Conv/Conv2D_bn_offset", "op": "Const", "attr": {"value": {"tensor": {"dtype": "DT_FLOAT", "tensorShape": {"dim": [{"size": "25"}]}}}, "dtype": {"type": "DT_FLOAT"}}}, {"name": "SharedFeatureExtractor/resnet_v1_50/block2/unit_1/bottleneck_v1/conv1/Conv2D_weights", "op": "Const", "attr": {"value": {"tensor": {"dtype": "DT_FLOAT", "tensorShape": {"dim": [{"size": "1"}, {"size": "1"}, {"size": "25"}, {"size": "12"}]}}}, "dtype": {"type": "DT_FLOAT"}}}, {"name": "SharedFeatureExtractor/resnet_v1_50/block4/unit_2/bottleneck_v1/conv2/BatchNorm/FusedBatchNorm/Scaled", "op": "Const", "attr": {"value": {"tensor": {"dtype": "DT_FLOAT", "tensorShape": {"dim": [{"size": "51"}]}}}, "dtype": {"type": "DT_FLOAT"}}}, {"name": "SharedFeatureExtractor/resnet_v1_50/block2/unit_1/bottleneck_v1/conv1/Conv2D_bn_offset", "op": "Const", "attr": {"dtype": {"type": "DT_FLOAT"}, "value": {"tensor": {"dtype": "DT_FLOAT", "tensorShape": {"dim": [{"size": "12"}]}}}}}, {"name": "SharedFeatureExtractor/resnet_v1_50/block2/unit_1/bottleneck_v1/shortcut/Conv2D_weights", "op": "Const", "attr": {"value": {"tensor": {"dtype": "DT_FLOAT", "tensorShape": {"dim": [{"size": "1"}, {"size": "1"}, {"size": "25"}, {"size": "51"}]}}}, "dtype": {"type": "DT_FLOAT"}}}, {"name": "SharedFeatureExtractor/resnet_v1_50/block2/unit_1/bottleneck_v1/shortcut/Conv2D_bn_offset", "op": "Const", "attr": {"value": {"tensor": {"dtype": "DT_FLOAT", "tensorShape": {"dim": [{"size": "51"}]}}}, "dtype": {"type": "DT_FLOAT"}}}, {"name": "SharedFeatureExtractor/resnet_v1_50/block2/unit_1/bottleneck_v1/conv2/Conv2D_weights", "op": "Const", "attr": {"value": {"tensor": {"dtype": "DT_FLOAT", "tensorShape": {"dim": [{"size": "3"}, {"size": "3"}, {"size": "12"}, {"size": "12"}]}}}, "dtype": {"type": "DT_FLOAT"}}}, {"name": "SharedFeatureExtractor/resnet_v1_50/block4/unit_2/bottleneck_v1/conv2/BatchNorm/FusedBatchNorm/Offset", "op": "Const", "attr": {"value": {"tensor": {"dtype": "DT_FLOAT", "tensorShape": {"dim": [{"size": "51"}]}}}, "dtype": {"type": "DT_FLOAT"}}}, {"name": "SharedFeatureExtractor/resnet_v1_50/block2/unit_1/bottleneck_v1/conv2/Conv2D_bn_offset", "op": "Const", "attr": {"value": {"tensor": {"dtype": "DT_FLOAT", "tensorShape": {"dim": [{"size": "12"}]}}}, "dtype": {"type": "DT_FLOAT"}}}, {"name": "SharedFeatureExtractor/resnet_v1_50/block2/unit_1/bottleneck_v1/conv3/Conv2D_weights", "op": "Const", "attr": {"dtype": {"type": "DT_FLOAT"}, "value": {"tensor": {"dtype": "DT_FLOAT", "tensorShape": {"dim": [{"size": "1"}, {"size": "1"}, {"size": "12"}, {"size": "51"}]}}}}}, {"name": "SharedFeatureExtractor/resnet_v1_50/block2/unit_1/bottleneck_v1/conv3/Conv2D_bn_offset", "op": "Const", "attr": {"dtype": {"type": "DT_FLOAT"}, "value": {"tensor": {"dtype": "DT_FLOAT", "tensorShape": {"dim": [{"size": "51"}]}}}}}, {"name": "SharedFeatureExtractor/resnet_v1_50/block2/unit_2/bottleneck_v1/conv1/Conv2D_weights", "op": "Const", "attr": {"value": {"tensor": {"dtype": "DT_FLOAT", "tensorShape": {"dim": [{"size": "1"}, {"size": "1"}, {"size": "51"}, {"size": "12"}]}}}, "dtype": {"type": "DT_FLOAT"}}}, {"name": "SharedFeatureExtractor/resnet_v1_50/block2/unit_2/bottleneck_v1/conv1/Conv2D_bn_offset", "op": "Const", "attr": {"value": {"tensor": {"dtype": "DT_FLOAT", "tensorShape": {"dim": [{"size": "12"}]}}}, "dtype": {"type": "DT_FLOAT"}}}, {"name": "SharedFeatureExtractor/resnet_v1_50/block4/unit_1/bottleneck_v1/conv2/BatchNorm/FusedBatchNorm/Scaled", "op": "Const", "attr": {"dtype": {"type": "DT_FLOAT"}, "value": {"tensor": {"dtype": "DT_FLOAT", "tensorShape": {"dim": [{"size": "51"}]}}}}}, {"name": "SharedFeatureExtractor/resnet_v1_50/block2/unit_2/bottleneck_v1/conv2/Conv2D_weights", "op": "Const", "attr": {"dtype": {"type": "DT_FLOAT"}, "value": {"tensor": {"dtype": "DT_FLOAT", "tensorShape": {"dim": [{"size": "3"}, {"size": "3"}, {"size": "12"}, {"size": "12"}]}}}}}, {"name": "SharedFeatureExtractor/resnet_v1_50/block2/unit_2/bottleneck_v1/conv2/Conv2D_bn_offset", "op": "Const", "attr": {"value": {"tensor": {"dtype": "DT_FLOAT", "tensorShape": {"dim": [{"size": "12"}]}}}, "dtype": {"type": "DT_FLOAT"}}}, {"name": "SharedFeatureExtractor/resnet_v1_50/block2/unit_2/bottleneck_v1/conv3/Conv2D_weights", "op": "Const", "attr": {"value": {"tensor": {"dtype": "DT_FLOAT", "tensorShape": {"dim": [{"size": "1"}, {"size": "1"}, {"size": "12"}, {"size": "51"}]}}}, "dtype": {"type": "DT_FLOAT"}}}, {"name": "SharedFeatureExtractor/resnet_v1_50/block4/unit_1/bottleneck_v1/conv2/BatchNorm/FusedBatchNorm/Offset", "op": "Const", "attr": {"value": {"tensor": {"dtype": "DT_FLOAT", "tensorShape": {"dim": [{"size": "51"}]}}}, "dtype": {"type": "DT_FLOAT"}}}, {"name": "SharedFeatureExtractor/resnet_v1_50/block2/unit_2/bottleneck_v1/conv3/Conv2D_bn_offset", "op": "Const", "attr": {"value": {"tensor": {"dtype": "DT_FLOAT", "tensorShape": {"dim": [{"size": "51"}]}}}, "dtype": {"type": "DT_FLOAT"}}}, {"name": "SharedFeatureExtractor/resnet_v1_50/block2/unit_3/bottleneck_v1/conv1/Conv2D_weights", "op": "Const", "attr": {"dtype": {"type": "DT_FLOAT"}, "value": {"tensor": {"dtype": "DT_FLOAT", "tensorShape": {"dim": [{"size": "1"}, {"size": "1"}, {"size": "51"}, {"size": "12"}]}}}}}, {"name": "SharedFeatureExtractor/resnet_v1_50/block2/unit_3/bottleneck_v1/conv1/Conv2D_bn_offset", "op": "Const", "attr": {"value": {"tensor": {"dtype": "DT_FLOAT", "tensorShape": {"dim": [{"size": "12"}]}}}, "dtype": {"type": "DT_FLOAT"}}}, {"name": "SharedFeatureExtractor/resnet_v1_50/block2/unit_3/bottleneck_v1/conv2/Conv2D_weights", "op": "Const", "attr": {"dtype": {"type": "DT_FLOAT"}, "value": {"tensor": {"dtype": "DT_FLOAT", "tensorShape": {"dim": [{"size": "3"}, {"size": "3"}, {"size": "12"}, {"size": "12"}]}}}}}, {"name": "SharedFeatureExtractor/resnet_v1_50/block2/unit_3/bottleneck_v1/conv2/Conv2D_bn_offset", "op": "Const", "attr": {"value": {"tensor": {"dtype": "DT_FLOAT", "tensorShape": {"dim": [{"size": "12"}]}}}, "dtype": {"type": "DT_FLOAT"}}}, {"name": "SharedFeatureExtractor/resnet_v1_50/block3/unit_6/bottleneck_v1/conv2/BatchNorm/FusedBatchNorm/Scaled", "op": "Const", "attr": {"dtype": {"type": "DT_FLOAT"}, "value": {"tensor": {"dtype": "DT_FLOAT", "tensorShape": {"dim": [{"size": "25"}]}}}}}, {"name": "SharedFeatureExtractor/resnet_v1_50/block2/unit_3/bottleneck_v1/conv3/Conv2D_weights", "op": "Const", "attr": {"value": {"tensor": {"dtype": "DT_FLOAT", "tensorShape": {"dim": [{"size": "1"}, {"size": "1"}, {"size": "12"}, {"size": "51"}]}}}, "dtype": {"type": "DT_FLOAT"}}}, {"name": "SharedFeatureExtractor/resnet_v1_50/block2/unit_3/bottleneck_v1/conv3/Conv2D_bn_offset", "op": "Const", "attr": {"value": {"tensor": {"dtype": "DT_FLOAT", "tensorShape": {"dim": [{"size": "51"}]}}}, "dtype": {"type": "DT_FLOAT"}}}, {"name": "SharedFeatureExtractor/resnet_v1_50/block2/unit_4/bottleneck_v1/conv1/Conv2D_weights", "op": "Const", "attr": {"value": {"tensor": {"dtype": "DT_FLOAT", "tensorShape": {"dim": [{"size": "1"}, {"size": "1"}, {"size": "51"}, {"size": "12"}]}}}, "dtype": {"type": "DT_FLOAT"}}}, {"name": "SharedFeatureExtractor/resnet_v1_50/block2/unit_4/bottleneck_v1/conv1/Conv2D_bn_offset", "op": "Const", "attr": {"value": {"tensor": {"dtype": "DT_FLOAT", "tensorShape": {"dim": [{"size": "12"}]}}}, "dtype": {"type": "DT_FLOAT"}}}, {"name": "SharedFeatureExtractor/resnet_v1_50/block3/unit_6/bottleneck_v1/conv2/BatchNorm/FusedBatchNorm/Offset", "op": "Const", "attr": {"value": {"tensor": {"dtype": "DT_FLOAT", "tensorShape": {"dim": [{"size": "25"}]}}}, "dtype": {"type": "DT_FLOAT"}}}, {"name": "SharedFeatureExtractor/resnet_v1_50/block2/unit_4/bottleneck_v1/conv2/Conv2D_weights", "op": "Const", "attr": {"value": {"tensor": {"dtype": "DT_FLOAT", "tensorShape": {"dim": [{"size": "3"}, {"size": "3"}, {"size": "12"}, {"size": "12"}]}}}, "dtype": {"type": "DT_FLOAT"}}}, {"name": "SharedFeatureExtractor/resnet_v1_50/block2/unit_4/bottleneck_v1/conv2/Conv2D_bn_offset", "op": "Const", "attr": {"value": {"tensor": {"dtype": "DT_FLOAT", "tensorShape": {"dim": [{"size": "12"}]}}}, "dtype": {"type": "DT_FLOAT"}}}, {"name": "SharedFeatureExtractor/resnet_v1_50/block2/unit_4/bottleneck_v1/conv3/Conv2D_weights", "op": "Const", "attr": {"dtype": {"type": "DT_FLOAT"}, "value": {"tensor": {"dtype": "DT_FLOAT", "tensorShape": {"dim": [{"size": "1"}, {"size": "1"}, {"size": "12"}, {"size": "51"}]}}}}}, {"name": "SharedFeatureExtractor/resnet_v1_50/block2/unit_4/bottleneck_v1/conv3/Conv2D_bn_offset", "op": "Const", "attr": {"value": {"tensor": {"dtype": "DT_FLOAT", "tensorShape": {"dim": [{"size": "51"}]}}}, "dtype": {"type": "DT_FLOAT"}}}, {"name": "SharedFeatureExtractor/resnet_v1_50/block3/unit_1/bottleneck_v1/conv1/Conv2D_weights", "op": "Const", "attr": {"dtype": {"type": "DT_FLOAT"}, "value": {"tensor": {"dtype": "DT_FLOAT", "tensorShape": {"dim": [{"size": "1"}, {"size": "1"}, {"size": "51"}, {"size": "25"}]}}}}}, {"name": "SharedFeatureExtractor/resnet_v1_50/block3/unit_5/bottleneck_v1/conv2/BatchNorm/FusedBatchNorm/Scaled", "op": "Const", "attr": {"value": {"tensor": {"dtype": "DT_FLOAT", "tensorShape": {"dim": [{"size": "25"}]}}}, "dtype": {"type": "DT_FLOAT"}}}, {"name": "SharedFeatureExtractor/resnet_v1_50/block3/unit_1/bottleneck_v1/conv1/Conv2D_bn_offset", "op": "Const", "attr": {"dtype": {"type": "DT_FLOAT"}, "value": {"tensor": {"dtype": "DT_FLOAT", "tensorShape": {"dim": [{"size": "25"}]}}}}}, {"name": "SharedFeatureExtractor/resnet_v1_50/block3/unit_1/bottleneck_v1/shortcut/Conv2D_weights", "op": "Const", "attr": {"value": {"tensor": {"dtype": "DT_FLOAT", "tensorShape": {"dim": [{"size": "1"}, {"size": "1"}, {"size": "51"}, {"size": "102"}]}}}, "dtype": {"type": "DT_FLOAT"}}}, {"name": "SharedFeatureExtractor/resnet_v1_50/block3/unit_1/bottleneck_v1/shortcut/Conv2D_bn_offset", "op": "Const", "attr": {"value": {"tensor": {"dtype": "DT_FLOAT", "tensorShape": {"dim": [{"size": "102"}]}}}, "dtype": {"type": "DT_FLOAT"}}}, {"name": "SharedFeatureExtractor/resnet_v1_50/block3/unit_1/bottleneck_v1/conv3/Conv2D_weights", "op": "Const", "attr": {"value": {"tensor": {"dtype": "DT_FLOAT", "tensorShape": {"dim": [{"size": "1"}, {"size": "1"}, {"size": "25"}, {"size": "102"}]}}}, "dtype": {"type": "DT_FLOAT"}}}, {"name": "SharedFeatureExtractor/resnet_v1_50/block3/unit_5/bottleneck_v1/conv2/BatchNorm/FusedBatchNorm/Offset", "op": "Const", "attr": {"value": {"tensor": {"dtype": "DT_FLOAT", "tensorShape": {"dim": [{"size": "25"}]}}}, "dtype": {"type": "DT_FLOAT"}}}, {"name": "SharedFeatureExtractor/resnet_v1_50/block3/unit_1/bottleneck_v1/conv3/Conv2D_bn_offset", "op": "Const", "attr": {"value": {"tensor": {"dtype": "DT_FLOAT", "tensorShape": {"dim": [{"size": "102"}]}}}, "dtype": {"type": "DT_FLOAT"}}}, {"name": "SharedFeatureExtractor/resnet_v1_50/block3/unit_2/bottleneck_v1/conv1/Conv2D_weights", "op": "Const", "attr": {"value": {"tensor": {"dtype": "DT_FLOAT", "tensorShape": {"dim": [{"size": "1"}, {"size": "1"}, {"size": "102"}, {"size": "25"}]}}}, "dtype": {"type": "DT_FLOAT"}}}, {"name": "SharedFeatureExtractor/resnet_v1_50/block3/unit_2/bottleneck_v1/conv1/Conv2D_bn_offset", "op": "Const", "attr": {"dtype": {"type": "DT_FLOAT"}, "value": {"tensor": {"dtype": "DT_FLOAT", "tensorShape": {"dim": [{"size": "25"}]}}}}}, {"name": "SharedFeatureExtractor/resnet_v1_50/block3/unit_2/bottleneck_v1/conv3/Conv2D_weights", "op": "Const", "attr": {"value": {"tensor": {"dtype": "DT_FLOAT", "tensorShape": {"dim": [{"size": "1"}, {"size": "1"}, {"size": "25"}, {"size": "102"}]}}}, "dtype": {"type": "DT_FLOAT"}}}, {"name": "SharedFeatureExtractor/resnet_v1_50/block3/unit_2/bottleneck_v1/conv3/Conv2D_bn_offset", "op": "Const", "attr": {"value": {"tensor": {"dtype": "DT_FLOAT", "tensorShape": {"dim": [{"size": "102"}]}}}, "dtype": {"type": "DT_FLOAT"}}}, {"name": "SharedFeatureExtractor/resnet_v1_50/block3/unit_3/bottleneck_v1/conv1/Conv2D_weights", "op": "Const", "attr": {"value": {"tensor": {"dtype": "DT_FLOAT", "tensorShape": {"dim": [{"size": "1"}, {"size": "1"}, {"size": "102"}, {"size": "25"}]}}}, "dtype": {"type": "DT_FLOAT"}}}, {"name": "SharedFeatureExtractor/resnet_v1_50/block3/unit_4/bottleneck_v1/conv2/BatchNorm/FusedBatchNorm/Scaled", "op": "Const", "attr": {"value": {"tensor": {"dtype": "DT_FLOAT", "tensorShape": {"dim": [{"size": "25"}]}}}, "dtype": {"type": "DT_FLOAT"}}}, {"name": "SharedFeatureExtractor/resnet_v1_50/block3/unit_3/bottleneck_v1/conv1/Conv2D_bn_offset", "op": "Const", "attr": {"value": {"tensor": {"dtype": "DT_FLOAT", "tensorShape": {"dim": [{"size": "25"}]}}}, "dtype": {"type": "DT_FLOAT"}}}, {"name": "SharedFeatureExtractor/resnet_v1_50/block3/unit_3/bottleneck_v1/conv3/Conv2D_weights", "op": "Const", "attr": {"dtype": {"type": "DT_FLOAT"}, "value": {"tensor": {"dtype": "DT_FLOAT", "tensorShape": {"dim": [{"size": "1"}, {"size": "1"}, {"size": "25"}, {"size": "102"}]}}}}}, {"name": "SharedFeatureExtractor/resnet_v1_50/block3/unit_3/bottleneck_v1/conv3/Conv2D_bn_offset", "op": "Const", "attr": {"value": {"tensor": {"dtype": "DT_FLOAT", "tensorShape": {"dim": [{"size": "102"}]}}}, "dtype": {"type": "DT_FLOAT"}}}, {"name": "SharedFeatureExtractor/resnet_v1_50/block3/unit_4/bottleneck_v1/conv1/Conv2D_weights", "op": "Const", "attr": {"value": {"tensor": {"dtype": "DT_FLOAT", "tensorShape": {"dim": [{"size": "1"}, {"size": "1"}, {"size": "102"}, {"size": "25"}]}}}, "dtype": {"type": "DT_FLOAT"}}}, {"name": "SharedFeatureExtractor/resnet_v1_50/block3/unit_4/bottleneck_v1/conv2/BatchNorm/FusedBatchNorm/Offset", "op": "Const", "attr": {"value": {"tensor": {"dtype": "DT_FLOAT", "tensorShape": {"dim": [{"size": "25"}]}}}, "dtype": {"type": "DT_FLOAT"}}}, {"name": "SharedFeatureExtractor/resnet_v1_50/block3/unit_4/bottleneck_v1/conv1/Conv2D_bn_offset", "op": "Const", "attr": {"value": {"tensor": {"dtype": "DT_FLOAT", "tensorShape": {"dim": [{"size": "25"}]}}}, "dtype": {"type": "DT_FLOAT"}}}, {"name": "SharedFeatureExtractor/resnet_v1_50/block3/unit_4/bottleneck_v1/conv3/Conv2D_weights", "op": "Const", "attr": {"dtype": {"type": "DT_FLOAT"}, "value": {"tensor": {"dtype": "DT_FLOAT", "tensorShape": {"dim": [{"size": "1"}, {"size": "1"}, {"size": "25"}, {"size": "102"}]}}}}}, {"name": "SharedFeatureExtractor/resnet_v1_50/block3/unit_4/bottleneck_v1/conv3/Conv2D_bn_offset", "op": "Const", "attr": {"value": {"tensor": {"dtype": "DT_FLOAT", "tensorShape": {"dim": [{"size": "102"}]}}}, "dtype": {"type": "DT_FLOAT"}}}, {"name": "SharedFeatureExtractor/resnet_v1_50/block3/unit_5/bottleneck_v1/conv1/Conv2D_weights", "op": "Const", "attr": {"value": {"tensor": {"dtype": "DT_FLOAT", "tensorShape": {"dim": [{"size": "1"}, {"size": "1"}, {"size": "102"}, {"size": "25"}]}}}, "dtype": {"type": "DT_FLOAT"}}}, {"name": "SharedFeatureExtractor/resnet_v1_50/block3/unit_5/bottleneck_v1/conv1/Conv2D_bn_offset", "op": "Const", "attr": {"dtype": {"type": "DT_FLOAT"}, "value": {"tensor": {"dtype": "DT_FLOAT", "tensorShape": {"dim": [{"size": "25"}]}}}}}, {"name": "SharedFeatureExtractor/resnet_v1_50/block3/unit_3/bottleneck_v1/conv2/BatchNorm/FusedBatchNorm/Scaled", "op": "Const", "attr": {"value": {"tensor": {"dtype": "DT_FLOAT", "tensorShape": {"dim": [{"size": "25"}]}}}, "dtype": {"type": "DT_FLOAT"}}}, {"name": "SharedFeatureExtractor/resnet_v1_50/block3/unit_5/bottleneck_v1/conv3/Conv2D_weights", "op": "Const", "attr": {"dtype": {"type": "DT_FLOAT"}, "value": {"tensor": {"dtype": "DT_FLOAT", "tensorShape": {"dim": [{"size": "1"}, {"size": "1"}, {"size": "25"}, {"size": "102"}]}}}}}, {"name": "SharedFeatureExtractor/resnet_v1_50/block3/unit_5/bottleneck_v1/conv3/Conv2D_bn_offset", "op": "Const", "attr": {"value": {"tensor": {"dtype": "DT_FLOAT", "tensorShape": {"dim": [{"size": "102"}]}}}, "dtype": {"type": "DT_FLOAT"}}}, {"name": "SharedFeatureExtractor/resnet_v1_50/block3/unit_6/bottleneck_v1/conv1/Conv2D_weights", "op": "Const", "attr": {"dtype": {"type": "DT_FLOAT"}, "value": {"tensor": {"dtype": "DT_FLOAT", "tensorShape": {"dim": [{"size": "1"}, {"size": "1"}, {"size": "102"}, {"size": "25"}]}}}}}, {"name": "SharedFeatureExtractor/resnet_v1_50/block3/unit_6/bottleneck_v1/conv1/Conv2D_bn_offset", "op": "Const", "attr": {"value": {"tensor": {"dtype": "DT_FLOAT", "tensorShape": {"dim": [{"size": "25"}]}}}, "dtype": {"type": "DT_FLOAT"}}}, {"name": "SharedFeatureExtractor/resnet_v1_50/block3/unit_3/bottleneck_v1/conv2/BatchNorm/FusedBatchNorm/Offset", "op": "Const", "attr": {"value": {"tensor": {"dtype": "DT_FLOAT", "tensorShape": {"dim": [{"size": "25"}]}}}, "dtype": {"type": "DT_FLOAT"}}}, {"name": "SharedFeatureExtractor/resnet_v1_50/block3/unit_6/bottleneck_v1/conv3/Conv2D_weights", "op": "Const", "attr": {"value": {"tensor": {"dtype": "DT_FLOAT", "tensorShape": {"dim": [{"size": "1"}, {"size": "1"}, {"size": "25"}, {"size": "102"}]}}}, "dtype": {"type": "DT_FLOAT"}}}, {"name": "SharedFeatureExtractor/resnet_v1_50/block3/unit_6/bottleneck_v1/conv3/Conv2D_bn_offset", "op": "Const", "attr": {"value": {"tensor": {"dtype": "DT_FLOAT", "tensorShape": {"dim": [{"size": "102"}]}}}, "dtype": {"type": "DT_FLOAT"}}}, {"name": "SharedFeatureExtractor/resnet_v1_50/block4/unit_1/bottleneck_v1/conv1/Conv2D_weights", "op": "Const", "attr": {"value": {"tensor": {"dtype": "DT_FLOAT", "tensorShape": {"dim": [{"size": "1"}, {"size": "1"}, {"size": "102"}, {"size": "51"}]}}}, "dtype": {"type": "DT_FLOAT"}}}, {"name": "SharedFeatureExtractor/resnet_v1_50/block4/unit_1/bottleneck_v1/conv1/Conv2D_bn_offset", "op": "Const", "attr": {"value": {"tensor": {"dtype": "DT_FLOAT", "tensorShape": {"dim": [{"size": "51"}]}}}, "dtype": {"type": "DT_FLOAT"}}}, {"name": "SharedFeatureExtractor/resnet_v1_50/block4/unit_1/bottleneck_v1/shortcut/Conv2D_weights", "op": "Const", "attr": {"value": {"tensor": {"dtype": "DT_FLOAT", "tensorShape": {"dim": [{"size": "1"}, {"size": "1"}, {"size": "102"}, {"size": "204"}]}}}, "dtype": {"type": "DT_FLOAT"}}}, {"name": "SharedFeatureExtractor/resnet_v1_50/block3/unit_2/bottleneck_v1/conv2/BatchNorm/FusedBatchNorm/Scaled", "op": "Const", "attr": {"value": {"tensor": {"dtype": "DT_FLOAT", "tensorShape": {"dim": [{"size": "25"}]}}}, "dtype": {"type": "DT_FLOAT"}}}, {"name": "SharedFeatureExtractor/resnet_v1_50/block4/unit_1/bottleneck_v1/shortcut/Conv2D_bn_offset", "op": "Const", "attr": {"dtype": {"type": "DT_FLOAT"}, "value": {"tensor": {"dtype": "DT_FLOAT", "tensorShape": {"dim": [{"size": "204"}]}}}}}, {"name": "SharedFeatureExtractor/resnet_v1_50/block4/unit_1/bottleneck_v1/conv3/Conv2D_weights", "op": "Const", "attr": {"value": {"tensor": {"dtype": "DT_FLOAT", "tensorShape": {"dim": [{"size": "1"}, {"size": "1"}, {"size": "51"}, {"size": "204"}]}}}, "dtype": {"type": "DT_FLOAT"}}}, {"name": "SharedFeatureExtractor/resnet_v1_50/block4/unit_1/bottleneck_v1/conv3/Conv2D_bn_offset", "op": "Const", "attr": {"dtype": {"type": "DT_FLOAT"}, "value": {"tensor": {"dtype": "DT_FLOAT", "tensorShape": {"dim": [{"size": "204"}]}}}}}, {"name": "SharedFeatureExtractor/resnet_v1_50/block4/unit_2/bottleneck_v1/conv1/Conv2D_weights", "op": "Const", "attr": {"value": {"tensor": {"dtype": "DT_FLOAT", "tensorShape": {"dim": [{"size": "1"}, {"size": "1"}, {"size": "204"}, {"size": "51"}]}}}, "dtype": {"type": "DT_FLOAT"}}}, {"name": "SharedFeatureExtractor/resnet_v1_50/block4/unit_2/bottleneck_v1/conv1/Conv2D_bn_offset", "op": "Const", "attr": {"value": {"tensor": {"dtype": "DT_FLOAT", "tensorShape": {"dim": [{"size": "51"}]}}}, "dtype": {"type": "DT_FLOAT"}}}, {"name": "SharedFeatureExtractor/resnet_v1_50/block3/unit_2/bottleneck_v1/conv2/BatchNorm/FusedBatchNorm/Offset", "op": "Const", "attr": {"value": {"tensor": {"dtype": "DT_FLOAT", "tensorShape": {"dim": [{"size": "25"}]}}}, "dtype": {"type": "DT_FLOAT"}}}, {"name": "SharedFeatureExtractor/resnet_v1_50/block4/unit_2/bottleneck_v1/conv3/Conv2D_weights", "op": "Const", "attr": {"value": {"tensor": {"dtype": "DT_FLOAT", "tensorShape": {"dim": [{"size": "1"}, {"size": "1"}, {"size": "51"}, {"size": "204"}]}}}, "dtype": {"type": "DT_FLOAT"}}}, {"name": "SharedFeatureExtractor/resnet_v1_50/block4/unit_2/bottleneck_v1/conv3/Conv2D_bn_offset", "op": "Const", "attr": {"value": {"tensor": {"dtype": "DT_FLOAT", "tensorShape": {"dim": [{"size": "204"}]}}}, "dtype": {"type": "DT_FLOAT"}}}, {"name": "SharedFeatureExtractor/resnet_v1_50/block4/unit_3/bottleneck_v1/conv1/Conv2D_weights", "op": "Const", "attr": {"value": {"tensor": {"dtype": "DT_FLOAT", "tensorShape": {"dim": [{"size": "1"}, {"size": "1"}, {"size": "204"}, {"size": "51"}]}}}, "dtype": {"type": "DT_FLOAT"}}}, {"name": "SharedFeatureExtractor/resnet_v1_50/block4/unit_3/bottleneck_v1/conv1/Conv2D_bn_offset", "op": "Const", "attr": {"value": {"tensor": {"dtype": "DT_FLOAT", "tensorShape": {"dim": [{"size": "51"}]}}}, "dtype": {"type": "DT_FLOAT"}}}, {"name": "SharedFeatureExtractor/resnet_v1_50/block4/unit_3/bottleneck_v1/conv3/Conv2D_weights", "op": "Const", "attr": {"value": {"tensor": {"dtype": "DT_FLOAT", "tensorShape": {"dim": [{"size": "1"}, {"size": "1"}, {"size": "51"}, {"size": "204"}]}}}, "dtype": {"type": "DT_FLOAT"}}}, {"name": "SharedFeatureExtractor/resnet_v1_50/block3/unit_1/bottleneck_v1/conv2/BatchNorm/FusedBatchNorm/Scaled", "op": "Const", "attr": {"dtype": {"type": "DT_FLOAT"}, "value": {"tensor": {"dtype": "DT_FLOAT", "tensorShape": {"dim": [{"size": "25"}]}}}}}, {"name": "SharedFeatureExtractor/resnet_v1_50/block4/unit_3/bottleneck_v1/conv3/Conv2D_bn_offset", "op": "Const", "attr": {"value": {"tensor": {"dtype": "DT_FLOAT", "tensorShape": {"dim": [{"size": "204"}]}}}, "dtype": {"type": "DT_FLOAT"}}}, {"name": "FastPSPModule/Conv/Conv2D_weights", "op": "Const", "attr": {"value": {"tensor": {"dtype": "DT_FLOAT", "tensorShape": {"dim": [{"size": "1"}, {"size": "1"}, {"size": "204"}, {"size": "51"}]}}}, "dtype": {"type": "DT_FLOAT"}}}, {"name": "FastPSPModule/Conv/Conv2D_bn_offset", "op": "Const", "attr": {"value": {"tensor": {"dtype": "DT_FLOAT", "tensorShape": {"dim": [{"size": "51"}]}}}, "dtype": {"type": "DT_FLOAT"}}}, {"name": "SharedFeatureExtractor/resnet_v1_50/block3/unit_1/bottleneck_v1/conv2/BatchNorm/FusedBatchNorm/Offset", "op": "Const", "attr": {"value": {"tensor": {"dtype": "DT_FLOAT", "tensorShape": {"dim": [{"size": "25"}]}}}, "dtype": {"type": "DT_FLOAT"}}}, {"name": "ToFloat", "op": "Cast", "input": ["inputs"], "attr": {"Truncate": {"b": false}, "DstT": {"type": "DT_FLOAT"}, "SrcT": {"type": "DT_UINT8"}}}, {"name": "Preprocessor/sub", "op": "Sub", "input": ["ToFloat", "Preprocessor/sub/y"], "attr": {"T": {"type": "DT_FLOAT"}}}, {"name": "Interp/ResizeBilinear", "op": "ResizeBilinear", "input": ["Preprocessor/sub", "Interp/ResizeBilinear/size"], "attr": {"align_corners": {"b": true}, "half_pixel_centers": {"b": false}, "T": {"type": "DT_FLOAT"}}}, {"name": "Conv/Relu6", "op": "_FusedConv2D", "input": ["Preprocessor/sub", "Conv/Conv2D_weights", "Conv/Conv2D_bn_offset"], "device": "/device:CPU:0", "attr": {"dilations": {"list": {"i": ["1", "1", "1", "1"]}}, "T": {"type": "DT_FLOAT"}, "strides": {"list": {"i": ["1", "2", "2", "1"]}}, "data_format": {"s": "TkhXQw=="}, "use_cudnn_on_gpu": {"b": true}, "explicit_paddings": {"list": {}}, "num_args": {"i": "1"}, "epsilon": {"f": 0.0}, "padding": {"s": "U0FNRQ=="}, "fused_ops": {"list": {"s": ["Qmlhc0FkZA==", "UmVsdTY="]}}}}, {"name": "SharedFeatureExtractor/resnet_v1_50/Pad", "op": "Pad", "input": ["Interp/ResizeBilinear", "SharedFeatureExtractor/resnet_v1_50/Pad/paddings"], "attr": {"Tpaddings": {"type": "DT_INT32"}, "T": {"type": "DT_FLOAT"}}}, {"name": "Conv_1/Relu6", "op": "_FusedConv2D", "input": ["Conv/Relu6", "Conv_1/Conv2D_weights", "Conv_1/Conv2D_bn_offset"], "device": "/device:CPU:0", "attr": {"data_format": {"s": "TkhXQw=="}, "strides": {"list": {"i": ["1", "2", "2", "1"]}}, "use_cudnn_on_gpu": {"b": true}, "explicit_paddings": {"list": {}}, "num_args": {"i": "1"}, "epsilon": {"f": 0.0}, "padding": {"s": "U0FNRQ=="}, "fused_ops": {"list": {"s": ["Qmlhc0FkZA==", "UmVsdTY="]}}, "dilations": {"list": {"i": ["1", "1", "1", "1"]}}, "T": {"type": "DT_FLOAT"}}}, {"name": "SharedFeatureExtractor/resnet_v1_50/conv1/Relu", "op": "_FusedConv2D", "input": ["SharedFeatureExtractor/resnet_v1_50/Pad", "SharedFeatureExtractor/resnet_v1_50/conv1/Conv2D_weights", "SharedFeatureExtractor/resnet_v1_50/conv1/Conv2D_bn_offset"], "device": "/device:CPU:0", "attr": {"T": {"type": "DT_FLOAT"}, "data_format": {"s": "TkhXQw=="}, "strides": {"list": {"i": ["1", "2", "2", "1"]}}, "use_cudnn_on_gpu": {"b": true}, "explicit_paddings": {"list": {}}, "num_args": {"i": "1"}, "epsilon": {"f": 0.0}, "padding": {"s": "VkFMSUQ="}, "fused_ops": {"list": {"s": ["Qmlhc0FkZA==", "UmVsdQ=="]}}, "dilations": {"list": {"i": ["1", "1", "1", "1"]}}}}, {"name": "Conv_2/Relu6", "op": "_FusedConv2D", "input": ["Conv_1/Relu6", "Conv_2/Conv2D_weights", "Conv_2/Conv2D_bn_offset"], "device": "/device:CPU:0", "attr": {"dilations": {"list": {"i": ["1", "1", "1", "1"]}}, "T": {"type": "DT_FLOAT"}, "strides": {"list": {"i": ["1", "2", "2", "1"]}}, "data_format": {"s": "TkhXQw=="}, "use_cudnn_on_gpu": {"b": true}, "explicit_paddings": {"list": {}}, "num_args": {"i": "1"}, "epsilon": {"f": 0.0}, "padding": {"s": "U0FNRQ=="}, "fused_ops": {"list": {"s": ["Qmlhc0FkZA==", "UmVsdTY="]}}}}, {"name": "SharedFeatureExtractor/resnet_v1_50/pool1/MaxPool", "op": "MaxPool", "input": ["SharedFeatureExtractor/resnet_v1_50/conv1/Relu"], "attr": {"ksize": {"list": {"i": ["1", "3", "3", "1"]}}, "padding": {"s": "U0FNRQ=="}, "T": {"type": "DT_FLOAT"}, "strides": {"list": {"i": ["1", "2", "2", "1"]}}, "data_format": {"s": "TkhXQw=="}}}, {"name": "Conv_3/Relu6", "op": "_FusedConv2D", "input": ["Conv_2/Relu6", "Conv_3/Conv2D_weights", "Conv_3/Conv2D_bn_offset"], "device": "/device:CPU:0", "attr": {"num_args": {"i": "1"}, "epsilon": {"f": 0.0}, "padding": {"s": "U0FNRQ=="}, "fused_ops": {"list": {"s": ["Qmlhc0FkZA==", "UmVsdTY="]}}, "dilations": {"list": {"i": ["1", "1", "1", "1"]}}, "T": {"type": "DT_FLOAT"}, "strides": {"list": {"i": ["1", "1", "1", "1"]}}, "data_format": {"s": "TkhXQw=="}, "explicit_paddings": {"list": {}}, "use_cudnn_on_gpu": {"b": true}}}, {"name": "SharedFeatureExtractor/resnet_v1_50/block1/unit_1/bottleneck_v1/conv1/Relu", "op": "_FusedConv2D", "input": ["SharedFeatureExtractor/resnet_v1_50/pool1/MaxPool", "SharedFeatureExtractor/resnet_v1_50/block1/unit_1/bottleneck_v1/conv1/Conv2D_weights", "SharedFeatureExtractor/resnet_v1_50/block1/unit_1/bottleneck_v1/conv1/Conv2D_bn_offset"], "device": "/device:CPU:0", "attr": {"num_args": {"i": "1"}, "epsilon": {"f": 0.0}, "padding": {"s": "U0FNRQ=="}, "fused_ops": {"list": {"s": ["Qmlhc0FkZA==", "UmVsdQ=="]}}, "dilations": {"list": {"i": ["1", "1", "1", "1"]}}, "T": {"type": "DT_FLOAT"}, "data_format": {"s": "TkhXQw=="}, "strides": {"list": {"i": ["1", "1", "1", "1"]}}, "explicit_paddings": {"list": {}}, "use_cudnn_on_gpu": {"b": true}}}, {"name": "SharedFeatureExtractor/resnet_v1_50/block1/unit_1/bottleneck_v1/shortcut/BatchNorm/FusedBatchNorm", "op": "_FusedConv2D", "input": ["SharedFeatureExtractor/resnet_v1_50/pool1/MaxPool", "SharedFeatureExtractor/resnet_v1_50/block1/unit_1/bottleneck_v1/shortcut/Conv2D_weights", "SharedFeatureExtractor/resnet_v1_50/block1/unit_1/bottleneck_v1/shortcut/Conv2D_bn_offset"], "device": "/device:CPU:0", "attr": {"dilations": {"list": {"i": ["1", "1", "1", "1"]}}, "T": {"type": "DT_FLOAT"}, "data_format": {"s": "TkhXQw=="}, "strides": {"list": {"i": ["1", "1", "1", "1"]}}, "explicit_paddings": {"list": {}}, "use_cudnn_on_gpu": {"b": true}, "num_args": {"i": "1"}, "epsilon": {"f": 0.0}, "padding": {"s": "U0FNRQ=="}, "fused_ops": {"list": {"s": ["Qmlhc0FkZA=="]}}}}, {"name": "CascadeFeatureFusion_1/Conv/BatchNorm/FusedBatchNorm", "op": "_FusedConv2D", "input": ["Conv_3/Relu6", "CascadeFeatureFusion_1/Conv/Conv2D_weights", "CascadeFeatureFusion_1/Conv/Conv2D_bn_offset"], "device": "/device:CPU:0", "attr": {"epsilon": {"f": 0.0}, "padding": {"s": "U0FNRQ=="}, "fused_ops": {"list": {"s": ["Qmlhc0FkZA=="]}}, "dilations": {"list": {"i": ["1", "1", "1", "1"]}}, "T": {"type": "DT_FLOAT"}, "strides": {"list": {"i": ["1", "1", "1", "1"]}}, "data_format": {"s": "TkhXQw=="}, "use_cudnn_on_gpu": {"b": true}, "explicit_paddings": {"list": {}}, "num_args": {"i": "1"}}}, {"name": "SharedFeatureExtractor/resnet_v1_50/block1/unit_1/bottleneck_v1/conv2/Relu", "op": "_FusedConv2D", "input": ["SharedFeatureExtractor/resnet_v1_50/block1/unit_1/bottleneck_v1/conv1/Relu", "SharedFeatureExtractor/resnet_v1_50/block1/unit_1/bottleneck_v1/conv2/Conv2D_weights", "SharedFeatureExtractor/resnet_v1_50/block1/unit_1/bottleneck_v1/conv2/Conv2D_bn_offset"], "device": "/device:CPU:0", "attr": {"fused_ops": {"list": {"s": ["Qmlhc0FkZA==", "UmVsdQ=="]}}, "dilations": {"list": {"i": ["1", "1", "1", "1"]}}, "T": {"type": "DT_FLOAT"}, "strides": {"list": {"i": ["1", "1", "1", "1"]}}, "data_format": {"s": "TkhXQw=="}, "explicit_paddings": {"list": {}}, "use_cudnn_on_gpu": {"b": true}, "num_args": {"i": "1"}, "epsilon": {"f": 0.0}, "padding": {"s": "U0FNRQ=="}}}, {"name": "CascadeFeatureFusion_1/Shape", "op": "Shape", "input": ["CascadeFeatureFusion_1/Conv/BatchNorm/FusedBatchNorm"], "attr": {"T": {"type": "DT_FLOAT"}, "out_type": {"type": "DT_INT32"}}}, {"name": "SharedFeatureExtractor/resnet_v1_50/block1/unit_1/bottleneck_v1/conv3/BatchNorm/FusedBatchNorm", "op": "_FusedConv2D", "input": ["SharedFeatureExtractor/resnet_v1_50/block1/unit_1/bottleneck_v1/conv2/Relu", "SharedFeatureExtractor/resnet_v1_50/block1/unit_1/bottleneck_v1/conv3/Conv2D_weights", "SharedFeatureExtractor/resnet_v1_50/block1/unit_1/bottleneck_v1/conv3/Conv2D_bn_offset"], "device": "/device:CPU:0", "attr": {"dilations": {"list": {"i": ["1", "1", "1", "1"]}}, "T": {"type": "DT_FLOAT"}, "strides": {"list": {"i": ["1", "1", "1", "1"]}}, "data_format": {"s": "TkhXQw=="}, "use_cudnn_on_gpu": {"b": true}, "explicit_paddings": {"list": {}}, "num_args": {"i": "1"}, "epsilon": {"f": 0.0}, "padding": {"s": "U0FNRQ=="}, "fused_ops": {"list": {"s": ["Qmlhc0FkZA=="]}}}}, {"name": "CascadeFeatureFusion_1/strided_slice", "op": "StridedSlice", "input": ["CascadeFeatureFusion_1/Shape", "CascadeFeatureFusion/strided_slice/stack", "CascadeFeatureFusion/strided_slice/stack_1", "CascadeFeatureFusion/strided_slice/stack"], "attr": {"T": {"type": "DT_INT32"}, "Index": {"type": "DT_INT32"}, "shrink_axis_mask": {"i": "0"}, "begin_mask": {"i": "0"}, "ellipsis_mask": {"i": "0"}, "new_axis_mask": {"i": "0"}, "end_mask": {"i": "0"}}}, {"name": "SharedFeatureExtractor/resnet_v1_50/block1/unit_1/bottleneck_v1/add", "op": "Add", "input": ["SharedFeatureExtractor/resnet_v1_50/block1/unit_1/bottleneck_v1/conv3/BatchNorm/FusedBatchNorm", "SharedFeatureExtractor/resnet_v1_50/block1/unit_1/bottleneck_v1/shortcut/BatchNorm/FusedBatchNorm"], "attr": {"T": {"type": "DT_FLOAT"}}}, {"name": "SharedFeatureExtractor/resnet_v1_50/block1/unit_1/bottleneck_v1/Relu", "op": "Relu", "input": ["SharedFeatureExtractor/resnet_v1_50/block1/unit_1/bottleneck_v1/add"], "attr": {"T": {"type": "DT_FLOAT"}}}, {"name": "SharedFeatureExtractor/resnet_v1_50/block1/unit_2/bottleneck_v1/conv1/Relu", "op": "_FusedConv2D", "input": ["SharedFeatureExtractor/resnet_v1_50/block1/unit_1/bottleneck_v1/Relu", "SharedFeatureExtractor/resnet_v1_50/block1/unit_2/bottleneck_v1/conv1/Conv2D_weights", "SharedFeatureExtractor/resnet_v1_50/block1/unit_2/bottleneck_v1/conv1/Conv2D_bn_offset"], "device": "/device:CPU:0", "attr": {"fused_ops": {"list": {"s": ["Qmlhc0FkZA==", "UmVsdQ=="]}}, "dilations": {"list": {"i": ["1", "1", "1", "1"]}}, "T": {"type": "DT_FLOAT"}, "strides": {"list": {"i": ["1", "1", "1", "1"]}}, "data_format": {"s": "TkhXQw=="}, "use_cudnn_on_gpu": {"b": true}, "explicit_paddings": {"list": {}}, "num_args": {"i": "1"}, "epsilon": {"f": 0.0}, "padding": {"s": "U0FNRQ=="}}}, {"name": "SharedFeatureExtractor/resnet_v1_50/block1/unit_2/bottleneck_v1/conv2/Relu", "op": "_FusedConv2D", "input": ["SharedFeatureExtractor/resnet_v1_50/block1/unit_2/bottleneck_v1/conv1/Relu", "SharedFeatureExtractor/resnet_v1_50/block1/unit_2/bottleneck_v1/conv2/Conv2D_weights", "SharedFeatureExtractor/resnet_v1_50/block1/unit_2/bottleneck_v1/conv2/Conv2D_bn_offset"], "device": "/device:CPU:0", "attr": {"num_args": {"i": "1"}, "epsilon": {"f": 0.0}, "padding": {"s": "U0FNRQ=="}, "fused_ops": {"list": {"s": ["Qmlhc0FkZA==", "UmVsdQ=="]}}, "dilations": {"list": {"i": ["1", "1", "1", "1"]}}, "T": {"type": "DT_FLOAT"}, "strides": {"list": {"i": ["1", "1", "1", "1"]}}, "data_format": {"s": "TkhXQw=="}, "use_cudnn_on_gpu": {"b": true}, "explicit_paddings": {"list": {}}}}, {"name": "SharedFeatureExtractor/resnet_v1_50/block1/unit_2/bottleneck_v1/conv3/BatchNorm/FusedBatchNorm", "op": "_FusedConv2D", "input": ["SharedFeatureExtractor/resnet_v1_50/block1/unit_2/bottleneck_v1/conv2/Relu", "SharedFeatureExtractor/resnet_v1_50/block1/unit_2/bottleneck_v1/conv3/Conv2D_weights", "SharedFeatureExtractor/resnet_v1_50/block1/unit_2/bottleneck_v1/conv3/Conv2D_bn_offset"], "device": "/device:CPU:0", "attr": {"epsilon": {"f": 0.0}, "padding": {"s": "U0FNRQ=="}, "fused_ops": {"list": {"s": ["Qmlhc0FkZA=="]}}, "dilations": {"list": {"i": ["1", "1", "1", "1"]}}, "T": {"type": "DT_FLOAT"}, "strides": {"list": {"i": ["1", "1", "1", "1"]}}, "data_format": {"s": "TkhXQw=="}, "explicit_paddings": {"list": {}}, "use_cudnn_on_gpu": {"b": true}, "num_args": {"i": "1"}}}, {"name": "SharedFeatureExtractor/resnet_v1_50/block1/unit_2/bottleneck_v1/add", "op": "Add", "input": ["SharedFeatureExtractor/resnet_v1_50/block1/unit_1/bottleneck_v1/Relu", "SharedFeatureExtractor/resnet_v1_50/block1/unit_2/bottleneck_v1/conv3/BatchNorm/FusedBatchNorm"], "attr": {"T": {"type": "DT_FLOAT"}}}, {"name": "SharedFeatureExtractor/resnet_v1_50/block1/unit_2/bottleneck_v1/Relu", "op": "Relu", "input": ["SharedFeatureExtractor/resnet_v1_50/block1/unit_2/bottleneck_v1/add"], "attr": {"T": {"type": "DT_FLOAT"}}}, {"name": "SharedFeatureExtractor/resnet_v1_50/block1/unit_3/bottleneck_v1/shortcut/MaxPool", "op": "MaxPool", "input": ["SharedFeatureExtractor/resnet_v1_50/block1/unit_2/bottleneck_v1/Relu"], "attr": {"strides": {"list": {"i": ["1", "2", "2", "1"]}}, "data_format": {"s": "TkhXQw=="}, "ksize": {"list": {"i": ["1", "1", "1", "1"]}}, "padding": {"s": "U0FNRQ=="}, "T": {"type": "DT_FLOAT"}}}, {"name": "SharedFeatureExtractor/resnet_v1_50/block1/unit_3/bottleneck_v1/conv1/Relu", "op": "_FusedConv2D", "input": ["SharedFeatureExtractor/resnet_v1_50/block1/unit_2/bottleneck_v1/Relu", "SharedFeatureExtractor/resnet_v1_50/block1/unit_3/bottleneck_v1/conv1/Conv2D_weights", "SharedFeatureExtractor/resnet_v1_50/block1/unit_3/bottleneck_v1/conv1/Conv2D_bn_offset"], "device": "/device:CPU:0", "attr": {"dilations": {"list": {"i": ["1", "1", "1", "1"]}}, "T": {"type": "DT_FLOAT"}, "data_format": {"s": "TkhXQw=="}, "strides": {"list": {"i": ["1", "1", "1", "1"]}}, "use_cudnn_on_gpu": {"b": true}, "explicit_paddings": {"list": {}}, "num_args": {"i": "1"}, "epsilon": {"f": 0.0}, "padding": {"s": "U0FNRQ=="}, "fused_ops": {"list": {"s": ["Qmlhc0FkZA==", "UmVsdQ=="]}}}}, {"name": "SharedFeatureExtractor/resnet_v1_50/block1/unit_3/bottleneck_v1/Pad", "op": "Pad", "input": ["SharedFeatureExtractor/resnet_v1_50/block1/unit_3/bottleneck_v1/conv1/Relu", "SharedFeatureExtractor/resnet_v1_50/block1/unit_3/bottleneck_v1/Pad/paddings"], "attr": {"T": {"type": "DT_FLOAT"}, "Tpaddings": {"type": "DT_INT32"}}}, {"name": "SharedFeatureExtractor/resnet_v1_50/block1/unit_3/bottleneck_v1/conv2/Relu", "op": "_FusedConv2D", "input": ["SharedFeatureExtractor/resnet_v1_50/block1/unit_3/bottleneck_v1/Pad", "SharedFeatureExtractor/resnet_v1_50/block1/unit_3/bottleneck_v1/conv2/Conv2D_weights", "SharedFeatureExtractor/resnet_v1_50/block1/unit_3/bottleneck_v1/conv2/Conv2D_bn_offset"], "device": "/device:CPU:0", "attr": {"epsilon": {"f": 0.0}, "padding": {"s": "VkFMSUQ="}, "fused_ops": {"list": {"s": ["Qmlhc0FkZA==", "UmVsdQ=="]}}, "dilations": {"list": {"i": ["1", "1", "1", "1"]}}, "T": {"type": "DT_FLOAT"}, "data_format": {"s": "TkhXQw=="}, "strides": {"list": {"i": ["1", "2", "2", "1"]}}, "explicit_paddings": {"list": {}}, "use_cudnn_on_gpu": {"b": true}, "num_args": {"i": "1"}}}, {"name": "SharedFeatureExtractor/resnet_v1_50/block1/unit_3/bottleneck_v1/conv3/BatchNorm/FusedBatchNorm", "op": "_FusedConv2D", "input": ["SharedFeatureExtractor/resnet_v1_50/block1/unit_3/bottleneck_v1/conv2/Relu", "SharedFeatureExtractor/resnet_v1_50/block1/unit_3/bottleneck_v1/conv3/Conv2D_weights", "SharedFeatureExtractor/resnet_v1_50/block1/unit_3/bottleneck_v1/conv3/Conv2D_bn_offset"], "device": "/device:CPU:0", "attr": {"dilations": {"list": {"i": ["1", "1", "1", "1"]}}, "T": {"type": "DT_FLOAT"}, "data_format": {"s": "TkhXQw=="}, "strides": {"list": {"i": ["1", "1", "1", "1"]}}, "explicit_paddings": {"list": {}}, "use_cudnn_on_gpu": {"b": true}, "num_args": {"i": "1"}, "epsilon": {"f": 0.0}, "padding": {"s": "U0FNRQ=="}, "fused_ops": {"list": {"s": ["Qmlhc0FkZA=="]}}}}, {"name": "SharedFeatureExtractor/resnet_v1_50/block1/unit_3/bottleneck_v1/add", "op": "Add", "input": ["SharedFeatureExtractor/resnet_v1_50/block1/unit_3/bottleneck_v1/conv3/BatchNorm/FusedBatchNorm", "SharedFeatureExtractor/resnet_v1_50/block1/unit_3/bottleneck_v1/shortcut/MaxPool"], "attr": {"T": {"type": "DT_FLOAT"}}}, {"name": "SharedFeatureExtractor/resnet_v1_50/block1/unit_3/bottleneck_v1/Relu", "op": "Relu", "input": ["SharedFeatureExtractor/resnet_v1_50/block1/unit_3/bottleneck_v1/add"], "attr": {"T": {"type": "DT_FLOAT"}}}, {"name": "SharedFeatureExtractor/resnet_v1_50/downsample_block/unit_1/Interp/ResizeBilinear", "op": "ResizeBilinear", "input": ["SharedFeatureExtractor/resnet_v1_50/block1/unit_3/bottleneck_v1/Relu", "FastPSPModule/ResizeBilinear/size"], "attr": {"align_corners": {"b": true}, "half_pixel_centers": {"b": false}, "T": {"type": "DT_FLOAT"}}}, {"name": "CascadeFeatureFusion/Conv/BatchNorm/FusedBatchNorm", "op": "_FusedConv2D", "input": ["SharedFeatureExtractor/resnet_v1_50/block1/unit_3/bottleneck_v1/Relu", "CascadeFeatureFusion/Conv/Conv2D_weights", "CascadeFeatureFusion/Conv/Conv2D_bn_offset"], "device": "/device:CPU:0", "attr": {"num_args": {"i": "1"}, "epsilon": {"f": 0.0}, "padding": {"s": "U0FNRQ=="}, "fused_ops": {"list": {"s": ["Qmlhc0FkZA=="]}}, "dilations": {"list": {"i": ["1", "1", "1", "1"]}}, "T": {"type": "DT_FLOAT"}, "data_format": {"s": "TkhXQw=="}, "strides": {"list": {"i": ["1", "1", "1", "1"]}}, "explicit_paddings": {"list": {}}, "use_cudnn_on_gpu": {"b": true}}}, {"name": "SharedFeatureExtractor/resnet_v1_50/block2/unit_1/bottleneck_v1/conv1/Relu", "op": "_FusedConv2D", "input": ["SharedFeatureExtractor/resnet_v1_50/downsample_block/unit_1/Interp/ResizeBilinear", "SharedFeatureExtractor/resnet_v1_50/block2/unit_1/bottleneck_v1/conv1/Conv2D_weights", "SharedFeatureExtractor/resnet_v1_50/block2/unit_1/bottleneck_v1/conv1/Conv2D_bn_offset"], "device": "/device:CPU:0", "attr": {"epsilon": {"f": 0.0}, "padding": {"s": "U0FNRQ=="}, "fused_ops": {"list": {"s": ["Qmlhc0FkZA==", "UmVsdQ=="]}}, "dilations": {"list": {"i": ["1", "1", "1", "1"]}}, "T": {"type": "DT_FLOAT"}, "strides": {"list": {"i": ["1", "1", "1", "1"]}}, "data_format": {"s": "TkhXQw=="}, "use_cudnn_on_gpu": {"b": true}, "explicit_paddings": {"list": {}}, "num_args": {"i": "1"}}}, {"name": "SharedFeatureExtractor/resnet_v1_50/block2/unit_1/bottleneck_v1/shortcut/BatchNorm/FusedBatchNorm", "op": "_FusedConv2D", "input": ["SharedFeatureExtractor/resnet_v1_50/downsample_block/unit_1/Interp/ResizeBilinear", "SharedFeatureExtractor/resnet_v1_50/block2/unit_1/bottleneck_v1/shortcut/Conv2D_weights", "SharedFeatureExtractor/resnet_v1_50/block2/unit_1/bottleneck_v1/shortcut/Conv2D_bn_offset"], "device": "/device:CPU:0", "attr": {"dilations": {"list": {"i": ["1", "1", "1", "1"]}}, "T": {"type": "DT_FLOAT"}, "data_format": {"s": "TkhXQw=="}, "strides": {"list": {"i": ["1", "1", "1", "1"]}}, "use_cudnn_on_gpu": {"b": true}, "explicit_paddings": {"list": {}}, "num_args": {"i": "1"}, "epsilon": {"f": 0.0}, "padding": {"s": "U0FNRQ=="}, "fused_ops": {"list": {"s": ["Qmlhc0FkZA=="]}}}}, {"name": "CascadeFeatureFusion/Shape", "op": "Shape", "input": ["CascadeFeatureFusion/Conv/BatchNorm/FusedBatchNorm"], "attr": {"T": {"type": "DT_FLOAT"}, "out_type": {"type": "DT_INT32"}}}, {"name": "SharedFeatureExtractor/resnet_v1_50/block2/unit_1/bottleneck_v1/conv2/Relu", "op": "_FusedConv2D", "input": ["SharedFeatureExtractor/resnet_v1_50/block2/unit_1/bottleneck_v1/conv1/Relu", "SharedFeatureExtractor/resnet_v1_50/block2/unit_1/bottleneck_v1/conv2/Conv2D_weights", "SharedFeatureExtractor/resnet_v1_50/block2/unit_1/bottleneck_v1/conv2/Conv2D_bn_offset"], "device": "/device:CPU:0", "attr": {"dilations": {"list": {"i": ["1", "1", "1", "1"]}}, "T": {"type": "DT_FLOAT"}, "data_format": {"s": "TkhXQw=="}, "strides": {"list": {"i": ["1", "1", "1", "1"]}}, "use_cudnn_on_gpu": {"b": true}, "explicit_paddings": {"list": {}}, "num_args": {"i": "1"}, "epsilon": {"f": 0.0}, "padding": {"s": "U0FNRQ=="}, "fused_ops": {"list": {"s": ["Qmlhc0FkZA==", "UmVsdQ=="]}}}}, {"name": "CascadeFeatureFusion/strided_slice", "op": "StridedSlice", "input": ["CascadeFeatureFusion/Shape", "CascadeFeatureFusion/strided_slice/stack", "CascadeFeatureFusion/strided_slice/stack_1", "CascadeFeatureFusion/strided_slice/stack"], "attr": {"T": {"type": "DT_INT32"}, "Index": {"type": "DT_INT32"}, "shrink_axis_mask": {"i": "0"}, "begin_mask": {"i": "0"}, "ellipsis_mask": {"i": "0"}, "new_axis_mask": {"i": "0"}, "end_mask": {"i": "0"}}}, {"name": "SharedFeatureExtractor/resnet_v1_50/block2/unit_1/bottleneck_v1/conv3/BatchNorm/FusedBatchNorm", "op": "_FusedConv2D", "input": ["SharedFeatureExtractor/resnet_v1_50/block2/unit_1/bottleneck_v1/conv2/Relu", "SharedFeatureExtractor/resnet_v1_50/block2/unit_1/bottleneck_v1/conv3/Conv2D_weights", "SharedFeatureExtractor/resnet_v1_50/block2/unit_1/bottleneck_v1/conv3/Conv2D_bn_offset"], "device": "/device:CPU:0", "attr": {"dilations": {"list": {"i": ["1", "1", "1", "1"]}}, "T": {"type": "DT_FLOAT"}, "data_format": {"s": "TkhXQw=="}, "strides": {"list": {"i": ["1", "1", "1", "1"]}}, "explicit_paddings": {"list": {}}, "use_cudnn_on_gpu": {"b": true}, "num_args": {"i": "1"}, "epsilon": {"f": 0.0}, "padding": {"s": "U0FNRQ=="}, "fused_ops": {"list": {"s": ["Qmlhc0FkZA=="]}}}}, {"name": "SharedFeatureExtractor/resnet_v1_50/block2/unit_1/bottleneck_v1/add", "op": "Add", "input": ["SharedFeatureExtractor/resnet_v1_50/block2/unit_1/bottleneck_v1/conv3/BatchNorm/FusedBatchNorm", "SharedFeatureExtractor/resnet_v1_50/block2/unit_1/bottleneck_v1/shortcut/BatchNorm/FusedBatchNorm"], "attr": {"T": {"type": "DT_FLOAT"}}}, {"name": "SharedFeatureExtractor/resnet_v1_50/block2/unit_1/bottleneck_v1/Relu", "op": "Relu", "input": ["SharedFeatureExtractor/resnet_v1_50/block2/unit_1/bottleneck_v1/add"], "attr": {"T": {"type": "DT_FLOAT"}}}, {"name": "SharedFeatureExtractor/resnet_v1_50/block2/unit_2/bottleneck_v1/conv1/Relu", "op": "_FusedConv2D", "input": ["SharedFeatureExtractor/resnet_v1_50/block2/unit_1/bottleneck_v1/Relu", "SharedFeatureExtractor/resnet_v1_50/block2/unit_2/bottleneck_v1/conv1/Conv2D_weights", "SharedFeatureExtractor/resnet_v1_50/block2/unit_2/bottleneck_v1/conv1/Conv2D_bn_offset"], "device": "/device:CPU:0", "attr": {"data_format": {"s": "TkhXQw=="}, "strides": {"list": {"i": ["1", "1", "1", "1"]}}, "explicit_paddings": {"list": {}}, "use_cudnn_on_gpu": {"b": true}, "num_args": {"i": "1"}, "epsilon": {"f": 0.0}, "padding": {"s": "U0FNRQ=="}, "fused_ops": {"list": {"s": ["Qmlhc0FkZA==", "UmVsdQ=="]}}, "dilations": {"list": {"i": ["1", "1", "1", "1"]}}, "T": {"type": "DT_FLOAT"}}}, {"name": "SharedFeatureExtractor/resnet_v1_50/block2/unit_2/bottleneck_v1/conv2/Relu", "op": "_FusedConv2D", "input": ["SharedFeatureExtractor/resnet_v1_50/block2/unit_2/bottleneck_v1/conv1/Relu", "SharedFeatureExtractor/resnet_v1_50/block2/unit_2/bottleneck_v1/conv2/Conv2D_weights", "SharedFeatureExtractor/resnet_v1_50/block2/unit_2/bottleneck_v1/conv2/Conv2D_bn_offset"], "device": "/device:CPU:0", "attr": {"strides": {"list": {"i": ["1", "1", "1", "1"]}}, "data_format": {"s": "TkhXQw=="}, "explicit_paddings": {"list": {}}, "use_cudnn_on_gpu": {"b": true}, "num_args": {"i": "1"}, "epsilon": {"f": 0.0}, "padding": {"s": "U0FNRQ=="}, "fused_ops": {"list": {"s": ["Qmlhc0FkZA==", "UmVsdQ=="]}}, "dilations": {"list": {"i": ["1", "1", "1", "1"]}}, "T": {"type": "DT_FLOAT"}}}, {"name": "SharedFeatureExtractor/resnet_v1_50/block2/unit_2/bottleneck_v1/conv3/BatchNorm/FusedBatchNorm", "op": "_FusedConv2D", "input": ["SharedFeatureExtractor/resnet_v1_50/block2/unit_2/bottleneck_v1/conv2/Relu", "SharedFeatureExtractor/resnet_v1_50/block2/unit_2/bottleneck_v1/conv3/Conv2D_weights", "SharedFeatureExtractor/resnet_v1_50/block2/unit_2/bottleneck_v1/conv3/Conv2D_bn_offset"], "device": "/device:CPU:0", "attr": {"dilations": {"list": {"i": ["1", "1", "1", "1"]}}, "T": {"type": "DT_FLOAT"}, "data_format": {"s": "TkhXQw=="}, "strides": {"list": {"i": ["1", "1", "1", "1"]}}, "explicit_paddings": {"list": {}}, "use_cudnn_on_gpu": {"b": true}, "num_args": {"i": "1"}, "epsilon": {"f": 0.0}, "padding": {"s": "U0FNRQ=="}, "fused_ops": {"list": {"s": ["Qmlhc0FkZA=="]}}}}, {"name": "SharedFeatureExtractor/resnet_v1_50/block2/unit_2/bottleneck_v1/add", "op": "Add", "input": ["SharedFeatureExtractor/resnet_v1_50/block2/unit_1/bottleneck_v1/Relu", "SharedFeatureExtractor/resnet_v1_50/block2/unit_2/bottleneck_v1/conv3/BatchNorm/FusedBatchNorm"], "attr": {"T": {"type": "DT_FLOAT"}}}, {"name": "SharedFeatureExtractor/resnet_v1_50/block2/unit_2/bottleneck_v1/Relu", "op": "Relu", "input": ["SharedFeatureExtractor/resnet_v1_50/block2/unit_2/bottleneck_v1/add"], "attr": {"T": {"type": "DT_FLOAT"}}}, {"name": "SharedFeatureExtractor/resnet_v1_50/block2/unit_3/bottleneck_v1/conv1/Relu", "op": "_FusedConv2D", "input": ["SharedFeatureExtractor/resnet_v1_50/block2/unit_2/bottleneck_v1/Relu", "SharedFeatureExtractor/resnet_v1_50/block2/unit_3/bottleneck_v1/conv1/Conv2D_weights", "SharedFeatureExtractor/resnet_v1_50/block2/unit_3/bottleneck_v1/conv1/Conv2D_bn_offset"], "device": "/device:CPU:0", "attr": {"dilations": {"list": {"i": ["1", "1", "1", "1"]}}, "T": {"type": "DT_FLOAT"}, "strides": {"list": {"i": ["1", "1", "1", "1"]}}, "data_format": {"s": "TkhXQw=="}, "explicit_paddings": {"list": {}}, "use_cudnn_on_gpu": {"b": true}, "num_args": {"i": "1"}, "epsilon": {"f": 0.0}, "padding": {"s": "U0FNRQ=="}, "fused_ops": {"list": {"s": ["Qmlhc0FkZA==", "UmVsdQ=="]}}}}, {"name": "SharedFeatureExtractor/resnet_v1_50/block2/unit_3/bottleneck_v1/conv2/Relu", "op": "_FusedConv2D", "input": ["SharedFeatureExtractor/resnet_v1_50/block2/unit_3/bottleneck_v1/conv1/Relu", "SharedFeatureExtractor/resnet_v1_50/block2/unit_3/bottleneck_v1/conv2/Conv2D_weights", "SharedFeatureExtractor/resnet_v1_50/block2/unit_3/bottleneck_v1/conv2/Conv2D_bn_offset"], "device": "/device:CPU:0", "attr": {"dilations": {"list": {"i": ["1", "1", "1", "1"]}}, "T": {"type": "DT_FLOAT"}, "data_format": {"s": "TkhXQw=="}, "strides": {"list": {"i": ["1", "1", "1", "1"]}}, "explicit_paddings": {"list": {}}, "use_cudnn_on_gpu": {"b": true}, "num_args": {"i": "1"}, "epsilon": {"f": 0.0}, "padding": {"s": "U0FNRQ=="}, "fused_ops": {"list": {"s": ["Qmlhc0FkZA==", "UmVsdQ=="]}}}}, {"name": "SharedFeatureExtractor/resnet_v1_50/block2/unit_3/bottleneck_v1/conv3/BatchNorm/FusedBatchNorm", "op": "_FusedConv2D", "input": ["SharedFeatureExtractor/resnet_v1_50/block2/unit_3/bottleneck_v1/conv2/Relu", "SharedFeatureExtractor/resnet_v1_50/block2/unit_3/bottleneck_v1/conv3/Conv2D_weights", "SharedFeatureExtractor/resnet_v1_50/block2/unit_3/bottleneck_v1/conv3/Conv2D_bn_offset"], "device": "/device:CPU:0", "attr": {"dilations": {"list": {"i": ["1", "1", "1", "1"]}}, "T": {"type": "DT_FLOAT"}, "data_format": {"s": "TkhXQw=="}, "strides": {"list": {"i": ["1", "1", "1", "1"]}}, "use_cudnn_on_gpu": {"b": true}, "explicit_paddings": {"list": {}}, "num_args": {"i": "1"}, "epsilon": {"f": 0.0}, "padding": {"s": "U0FNRQ=="}, "fused_ops": {"list": {"s": ["Qmlhc0FkZA=="]}}}}, {"name": "SharedFeatureExtractor/resnet_v1_50/block2/unit_3/bottleneck_v1/add", "op": "Add", "input": ["SharedFeatureExtractor/resnet_v1_50/block2/unit_2/bottleneck_v1/Relu", "SharedFeatureExtractor/resnet_v1_50/block2/unit_3/bottleneck_v1/conv3/BatchNorm/FusedBatchNorm"], "attr": {"T": {"type": "DT_FLOAT"}}}, {"name": "SharedFeatureExtractor/resnet_v1_50/block2/unit_3/bottleneck_v1/Relu", "op": "Relu", "input": ["SharedFeatureExtractor/resnet_v1_50/block2/unit_3/bottleneck_v1/add"], "attr": {"T": {"type": "DT_FLOAT"}}}, {"name": "SharedFeatureExtractor/resnet_v1_50/block2/unit_4/bottleneck_v1/conv1/Relu", "op": "_FusedConv2D", "input": ["SharedFeatureExtractor/resnet_v1_50/block2/unit_3/bottleneck_v1/Relu", "SharedFeatureExtractor/resnet_v1_50/block2/unit_4/bottleneck_v1/conv1/Conv2D_weights", "SharedFeatureExtractor/resnet_v1_50/block2/unit_4/bottleneck_v1/conv1/Conv2D_bn_offset"], "device": "/device:CPU:0", "attr": {"fused_ops": {"list": {"s": ["Qmlhc0FkZA==", "UmVsdQ=="]}}, "dilations": {"list": {"i": ["1", "1", "1", "1"]}}, "T": {"type": "DT_FLOAT"}, "strides": {"list": {"i": ["1", "1", "1", "1"]}}, "data_format": {"s": "TkhXQw=="}, "explicit_paddings": {"list": {}}, "use_cudnn_on_gpu": {"b": true}, "num_args": {"i": "1"}, "epsilon": {"f": 0.0}, "padding": {"s": "U0FNRQ=="}}}, {"name": "SharedFeatureExtractor/resnet_v1_50/block2/unit_4/bottleneck_v1/conv2/Relu", "op": "_FusedConv2D", "input": ["SharedFeatureExtractor/resnet_v1_50/block2/unit_4/bottleneck_v1/conv1/Relu", "SharedFeatureExtractor/resnet_v1_50/block2/unit_4/bottleneck_v1/conv2/Conv2D_weights", "SharedFeatureExtractor/resnet_v1_50/block2/unit_4/bottleneck_v1/conv2/Conv2D_bn_offset"], "device": "/device:CPU:0", "attr": {"dilations": {"list": {"i": ["1", "1", "1", "1"]}}, "T": {"type": "DT_FLOAT"}, "strides": {"list": {"i": ["1", "1", "1", "1"]}}, "data_format": {"s": "TkhXQw=="}, "use_cudnn_on_gpu": {"b": true}, "explicit_paddings": {"list": {}}, "num_args": {"i": "1"}, "epsilon": {"f": 0.0}, "padding": {"s": "U0FNRQ=="}, "fused_ops": {"list": {"s": ["Qmlhc0FkZA==", "UmVsdQ=="]}}}}, {"name": "SharedFeatureExtractor/resnet_v1_50/block2/unit_4/bottleneck_v1/conv3/BatchNorm/FusedBatchNorm", "op": "_FusedConv2D", "input": ["SharedFeatureExtractor/resnet_v1_50/block2/unit_4/bottleneck_v1/conv2/Relu", "SharedFeatureExtractor/resnet_v1_50/block2/unit_4/bottleneck_v1/conv3/Conv2D_weights", "SharedFeatureExtractor/resnet_v1_50/block2/unit_4/bottleneck_v1/conv3/Conv2D_bn_offset"], "device": "/device:CPU:0", "attr": {"T": {"type": "DT_FLOAT"}, "strides": {"list": {"i": ["1", "1", "1", "1"]}}, "data_format": {"s": "TkhXQw=="}, "use_cudnn_on_gpu": {"b": true}, "explicit_paddings": {"list": {}}, "num_args": {"i": "1"}, "epsilon": {"f": 0.0}, "padding": {"s": "U0FNRQ=="}, "fused_ops": {"list": {"s": ["Qmlhc0FkZA=="]}}, "dilations": {"list": {"i": ["1", "1", "1", "1"]}}}}, {"name": "SharedFeatureExtractor/resnet_v1_50/block2/unit_4/bottleneck_v1/add", "op": "Add", "input": ["SharedFeatureExtractor/resnet_v1_50/block2/unit_3/bottleneck_v1/Relu", "SharedFeatureExtractor/resnet_v1_50/block2/unit_4/bottleneck_v1/conv3/BatchNorm/FusedBatchNorm"], "attr": {"T": {"type": "DT_FLOAT"}}}, {"name": "SharedFeatureExtractor/resnet_v1_50/block2/unit_4/bottleneck_v1/Relu", "op": "Relu", "input": ["SharedFeatureExtractor/resnet_v1_50/block2/unit_4/bottleneck_v1/add"], "attr": {"T": {"type": "DT_FLOAT"}}}, {"name": "SharedFeatureExtractor/resnet_v1_50/block3/unit_1/bottleneck_v1/conv1/Relu", "op": "_FusedConv2D", "input": ["SharedFeatureExtractor/resnet_v1_50/block2/unit_4/bottleneck_v1/Relu", "SharedFeatureExtractor/resnet_v1_50/block3/unit_1/bottleneck_v1/conv1/Conv2D_weights", "SharedFeatureExtractor/resnet_v1_50/block3/unit_1/bottleneck_v1/conv1/Conv2D_bn_offset"], "device": "/device:CPU:0", "attr": {"dilations": {"list": {"i": ["1", "1", "1", "1"]}}, "T": {"type": "DT_FLOAT"}, "data_format": {"s": "TkhXQw=="}, "strides": {"list": {"i": ["1", "1", "1", "1"]}}, "use_cudnn_on_gpu": {"b": true}, "explicit_paddings": {"list": {}}, "num_args": {"i": "1"}, "epsilon": {"f": 0.0}, "padding": {"s": "U0FNRQ=="}, "fused_ops": {"list": {"s": ["Qmlhc0FkZA==", "UmVsdQ=="]}}}}, {"name": "SharedFeatureExtractor/resnet_v1_50/block3/unit_1/bottleneck_v1/shortcut/BatchNorm/FusedBatchNorm", "op": "_FusedConv2D", "input": ["SharedFeatureExtractor/resnet_v1_50/block2/unit_4/bottleneck_v1/Relu", "SharedFeatureExtractor/resnet_v1_50/block3/unit_1/bottleneck_v1/shortcut/Conv2D_weights", "SharedFeatureExtractor/resnet_v1_50/block3/unit_1/bottleneck_v1/shortcut/Conv2D_bn_offset"], "device": "/device:CPU:0", "attr": {"epsilon": {"f": 0.0}, "padding": {"s": "U0FNRQ=="}, "fused_ops": {"list": {"s": ["Qmlhc0FkZA=="]}}, "dilations": {"list": {"i": ["1", "1", "1", "1"]}}, "T": {"type": "DT_FLOAT"}, "data_format": {"s": "TkhXQw=="}, "strides": {"list": {"i": ["1", "1", "1", "1"]}}, "explicit_paddings": {"list": {}}, "use_cudnn_on_gpu": {"b": true}, "num_args": {"i": "1"}}}, {"name": "SharedFeatureExtractor/resnet_v1_50/block3/unit_1/bottleneck_v1/conv2/SpaceToBatchND", "op": "SpaceToBatchND", "input": ["SharedFeatureExtractor/resnet_v1_50/block3/unit_1/bottleneck_v1/conv1/Relu", "SharedFeatureExtractor/resnet_v1_50/block3/unit_1/bottleneck_v1/conv2/SpaceToBatchND/block_shape", "SharedFeatureExtractor/resnet_v1_50/block3/unit_1/bottleneck_v1/conv2/SpaceToBatchND/paddings"], "attr": {"T": {"type": "DT_FLOAT"}, "Tpaddings": {"type": "DT_INT32"}, "Tblock_shape": {"type": "DT_INT32"}}}, {"name": "SharedFeatureExtractor/resnet_v1_50/block3/unit_1/bottleneck_v1/conv2/Conv2D", "op": "Conv2D", "input": ["SharedFeatureExtractor/resnet_v1_50/block3/unit_1/bottleneck_v1/conv2/SpaceToBatchND", "SharedFeatureExtractor/resnet_v1_50/block3/unit_1/bottleneck_v1/conv2/weights"], "device": "/device:CPU:0", "attr": {"data_format": {"s": "TkhXQw=="}, "strides": {"list": {"i": ["1", "1", "1", "1"]}}, "explicit_paddings": {"list": {}}, "use_cudnn_on_gpu": {"b": true}, "padding": {"s": "VkFMSUQ="}, "dilations": {"list": {"i": ["1", "1", "1", "1"]}}, "T": {"type": "DT_FLOAT"}}}, {"name": "SharedFeatureExtractor/resnet_v1_50/block3/unit_1/bottleneck_v1/conv2/BatchToSpaceND", "op": "BatchToSpaceND", "input": ["SharedFeatureExtractor/resnet_v1_50/block3/unit_1/bottleneck_v1/conv2/Conv2D", "SharedFeatureExtractor/resnet_v1_50/block3/unit_1/bottleneck_v1/conv2/SpaceToBatchND/block_shape", "SharedFeatureExtractor/resnet_v1_50/block3/unit_1/bottleneck_v1/conv2/BatchToSpaceND/crops"], "attr": {"Tblock_shape": {"type": "DT_INT32"}, "Tcrops": {"type": "DT_INT32"}, "T": {"type": "DT_FLOAT"}}}, {"name": "SharedFeatureExtractor/resnet_v1_50/block3/unit_1/bottleneck_v1/conv2/BatchNorm/FusedBatchNorm/Mul", "op": "Mul", "input": ["SharedFeatureExtractor/resnet_v1_50/block3/unit_1/bottleneck_v1/conv2/BatchNorm/FusedBatchNorm/Scaled", "SharedFeatureExtractor/resnet_v1_50/block3/unit_1/bottleneck_v1/conv2/BatchToSpaceND"], "attr": {"T": {"type": "DT_FLOAT"}}}, {"name": "SharedFeatureExtractor/resnet_v1_50/block3/unit_1/bottleneck_v1/conv2/BatchNorm/FusedBatchNorm", "op": "Add", "input": ["SharedFeatureExtractor/resnet_v1_50/block3/unit_1/bottleneck_v1/conv2/BatchNorm/FusedBatchNorm/Mul", "SharedFeatureExtractor/resnet_v1_50/block3/unit_1/bottleneck_v1/conv2/BatchNorm/FusedBatchNorm/Offset"], "attr": {"T": {"type": "DT_FLOAT"}}}, {"name": "SharedFeatureExtractor/resnet_v1_50/block3/unit_1/bottleneck_v1/conv2/Relu", "op": "Relu", "input": ["SharedFeatureExtractor/resnet_v1_50/block3/unit_1/bottleneck_v1/conv2/BatchNorm/FusedBatchNorm"], "attr": {"T": {"type": "DT_FLOAT"}}}, {"name": "SharedFeatureExtractor/resnet_v1_50/block3/unit_1/bottleneck_v1/conv3/BatchNorm/FusedBatchNorm", "op": "_FusedConv2D", "input": ["SharedFeatureExtractor/resnet_v1_50/block3/unit_1/bottleneck_v1/conv2/Relu", "SharedFeatureExtractor/resnet_v1_50/block3/unit_1/bottleneck_v1/conv3/Conv2D_weights", "SharedFeatureExtractor/resnet_v1_50/block3/unit_1/bottleneck_v1/conv3/Conv2D_bn_offset"], "device": "/device:CPU:0", "attr": {"epsilon": {"f": 0.0}, "padding": {"s": "U0FNRQ=="}, "fused_ops": {"list": {"s": ["Qmlhc0FkZA=="]}}, "dilations": {"list": {"i": ["1", "1", "1", "1"]}}, "T": {"type": "DT_FLOAT"}, "strides": {"list": {"i": ["1", "1", "1", "1"]}}, "data_format": {"s": "TkhXQw=="}, "explicit_paddings": {"list": {}}, "use_cudnn_on_gpu": {"b": true}, "num_args": {"i": "1"}}}, {"name": "SharedFeatureExtractor/resnet_v1_50/block3/unit_1/bottleneck_v1/add", "op": "Add", "input": ["SharedFeatureExtractor/resnet_v1_50/block3/unit_1/bottleneck_v1/conv3/BatchNorm/FusedBatchNorm", "SharedFeatureExtractor/resnet_v1_50/block3/unit_1/bottleneck_v1/shortcut/BatchNorm/FusedBatchNorm"], "attr": {"T": {"type": "DT_FLOAT"}}}, {"name": "SharedFeatureExtractor/resnet_v1_50/block3/unit_1/bottleneck_v1/Relu", "op": "Relu", "input": ["SharedFeatureExtractor/resnet_v1_50/block3/unit_1/bottleneck_v1/add"], "attr": {"T": {"type": "DT_FLOAT"}}}, {"name": "SharedFeatureExtractor/resnet_v1_50/block3/unit_2/bottleneck_v1/conv1/Relu", "op": "_FusedConv2D", "input": ["SharedFeatureExtractor/resnet_v1_50/block3/unit_1/bottleneck_v1/Relu", "SharedFeatureExtractor/resnet_v1_50/block3/unit_2/bottleneck_v1/conv1/Conv2D_weights", "SharedFeatureExtractor/resnet_v1_50/block3/unit_2/bottleneck_v1/conv1/Conv2D_bn_offset"], "device": "/device:CPU:0", "attr": {"data_format": {"s": "TkhXQw=="}, "strides": {"list": {"i": ["1", "1", "1", "1"]}}, "use_cudnn_on_gpu": {"b": true}, "explicit_paddings": {"list": {}}, "num_args": {"i": "1"}, "epsilon": {"f": 0.0}, "padding": {"s": "U0FNRQ=="}, "fused_ops": {"list": {"s": ["Qmlhc0FkZA==", "UmVsdQ=="]}}, "dilations": {"list": {"i": ["1", "1", "1", "1"]}}, "T": {"type": "DT_FLOAT"}}}, {"name": "SharedFeatureExtractor/resnet_v1_50/block3/unit_2/bottleneck_v1/conv2/SpaceToBatchND", "op": "SpaceToBatchND", "input": ["SharedFeatureExtractor/resnet_v1_50/block3/unit_2/bottleneck_v1/conv1/Relu", "SharedFeatureExtractor/resnet_v1_50/block3/unit_1/bottleneck_v1/conv2/SpaceToBatchND/block_shape", "SharedFeatureExtractor/resnet_v1_50/block3/unit_1/bottleneck_v1/conv2/SpaceToBatchND/paddings"], "attr": {"T": {"type": "DT_FLOAT"}, "Tpaddings": {"type": "DT_INT32"}, "Tblock_shape": {"type": "DT_INT32"}}}, {"name": "SharedFeatureExtractor/resnet_v1_50/block3/unit_2/bottleneck_v1/conv2/Conv2D", "op": "Conv2D", "input": ["SharedFeatureExtractor/resnet_v1_50/block3/unit_2/bottleneck_v1/conv2/SpaceToBatchND", "SharedFeatureExtractor/resnet_v1_50/block3/unit_2/bottleneck_v1/conv2/weights"], "device": "/device:CPU:0", "attr": {"dilations": {"list": {"i": ["1", "1", "1", "1"]}}, "T": {"type": "DT_FLOAT"}, "data_format": {"s": "TkhXQw=="}, "strides": {"list": {"i": ["1", "1", "1", "1"]}}, "explicit_paddings": {"list": {}}, "use_cudnn_on_gpu": {"b": true}, "padding": {"s": "VkFMSUQ="}}}, {"name": "SharedFeatureExtractor/resnet_v1_50/block3/unit_2/bottleneck_v1/conv2/BatchToSpaceND", "op": "BatchToSpaceND", "input": ["SharedFeatureExtractor/resnet_v1_50/block3/unit_2/bottleneck_v1/conv2/Conv2D", "SharedFeatureExtractor/resnet_v1_50/block3/unit_1/bottleneck_v1/conv2/SpaceToBatchND/block_shape", "SharedFeatureExtractor/resnet_v1_50/block3/unit_1/bottleneck_v1/conv2/BatchToSpaceND/crops"], "attr": {"T": {"type": "DT_FLOAT"}, "Tblock_shape": {"type": "DT_INT32"}, "Tcrops": {"type": "DT_INT32"}}}, {"name": "SharedFeatureExtractor/resnet_v1_50/block3/unit_2/bottleneck_v1/conv2/BatchNorm/FusedBatchNorm/Mul", "op": "Mul", "input": ["SharedFeatureExtractor/resnet_v1_50/block3/unit_2/bottleneck_v1/conv2/BatchNorm/FusedBatchNorm/Scaled", "SharedFeatureExtractor/resnet_v1_50/block3/unit_2/bottleneck_v1/conv2/BatchToSpaceND"], "attr": {"T": {"type": "DT_FLOAT"}}}, {"name": "SharedFeatureExtractor/resnet_v1_50/block3/unit_2/bottleneck_v1/conv2/BatchNorm/FusedBatchNorm", "op": "Add", "input": ["SharedFeatureExtractor/resnet_v1_50/block3/unit_2/bottleneck_v1/conv2/BatchNorm/FusedBatchNorm/Mul", "SharedFeatureExtractor/resnet_v1_50/block3/unit_2/bottleneck_v1/conv2/BatchNorm/FusedBatchNorm/Offset"], "attr": {"T": {"type": "DT_FLOAT"}}}, {"name": "SharedFeatureExtractor/resnet_v1_50/block3/unit_2/bottleneck_v1/conv2/Relu", "op": "Relu", "input": ["SharedFeatureExtractor/resnet_v1_50/block3/unit_2/bottleneck_v1/conv2/BatchNorm/FusedBatchNorm"], "attr": {"T": {"type": "DT_FLOAT"}}}, {"name": "SharedFeatureExtractor/resnet_v1_50/block3/unit_2/bottleneck_v1/conv3/BatchNorm/FusedBatchNorm", "op": "_FusedConv2D", "input": ["SharedFeatureExtractor/resnet_v1_50/block3/unit_2/bottleneck_v1/conv2/Relu", "SharedFeatureExtractor/resnet_v1_50/block3/unit_2/bottleneck_v1/conv3/Conv2D_weights", "SharedFeatureExtractor/resnet_v1_50/block3/unit_2/bottleneck_v1/conv3/Conv2D_bn_offset"], "device": "/device:CPU:0", "attr": {"dilations": {"list": {"i": ["1", "1", "1", "1"]}}, "T": {"type": "DT_FLOAT"}, "data_format": {"s": "TkhXQw=="}, "strides": {"list": {"i": ["1", "1", "1", "1"]}}, "use_cudnn_on_gpu": {"b": true}, "explicit_paddings": {"list": {}}, "num_args": {"i": "1"}, "epsilon": {"f": 0.0}, "padding": {"s": "U0FNRQ=="}, "fused_ops": {"list": {"s": ["Qmlhc0FkZA=="]}}}}, {"name": "SharedFeatureExtractor/resnet_v1_50/block3/unit_2/bottleneck_v1/add", "op": "Add", "input": ["SharedFeatureExtractor/resnet_v1_50/block3/unit_1/bottleneck_v1/Relu", "SharedFeatureExtractor/resnet_v1_50/block3/unit_2/bottleneck_v1/conv3/BatchNorm/FusedBatchNorm"], "attr": {"T": {"type": "DT_FLOAT"}}}, {"name": "SharedFeatureExtractor/resnet_v1_50/block3/unit_2/bottleneck_v1/Relu", "op": "Relu", "input": ["SharedFeatureExtractor/resnet_v1_50/block3/unit_2/bottleneck_v1/add"], "attr": {"T": {"type": "DT_FLOAT"}}}, {"name": "SharedFeatureExtractor/resnet_v1_50/block3/unit_3/bottleneck_v1/conv1/Relu", "op": "_FusedConv2D", "input": ["SharedFeatureExtractor/resnet_v1_50/block3/unit_2/bottleneck_v1/Relu", "SharedFeatureExtractor/resnet_v1_50/block3/unit_3/bottleneck_v1/conv1/Conv2D_weights", "SharedFeatureExtractor/resnet_v1_50/block3/unit_3/bottleneck_v1/conv1/Conv2D_bn_offset"], "device": "/device:CPU:0", "attr": {"dilations": {"list": {"i": ["1", "1", "1", "1"]}}, "T": {"type": "DT_FLOAT"}, "data_format": {"s": "TkhXQw=="}, "strides": {"list": {"i": ["1", "1", "1", "1"]}}, "use_cudnn_on_gpu": {"b": true}, "explicit_paddings": {"list": {}}, "num_args": {"i": "1"}, "epsilon": {"f": 0.0}, "padding": {"s": "U0FNRQ=="}, "fused_ops": {"list": {"s": ["Qmlhc0FkZA==", "UmVsdQ=="]}}}}, {"name": "SharedFeatureExtractor/resnet_v1_50/block3/unit_3/bottleneck_v1/conv2/SpaceToBatchND", "op": "SpaceToBatchND", "input": ["SharedFeatureExtractor/resnet_v1_50/block3/unit_3/bottleneck_v1/conv1/Relu", "SharedFeatureExtractor/resnet_v1_50/block3/unit_1/bottleneck_v1/conv2/SpaceToBatchND/block_shape", "SharedFeatureExtractor/resnet_v1_50/block3/unit_1/bottleneck_v1/conv2/SpaceToBatchND/paddings"], "attr": {"Tpaddings": {"type": "DT_INT32"}, "Tblock_shape": {"type": "DT_INT32"}, "T": {"type": "DT_FLOAT"}}}, {"name": "SharedFeatureExtractor/resnet_v1_50/block3/unit_3/bottleneck_v1/conv2/Conv2D", "op": "Conv2D", "input": ["SharedFeatureExtractor/resnet_v1_50/block3/unit_3/bottleneck_v1/conv2/SpaceToBatchND", "SharedFeatureExtractor/resnet_v1_50/block3/unit_3/bottleneck_v1/conv2/weights"], "device": "/device:CPU:0", "attr": {"data_format": {"s": "TkhXQw=="}, "strides": {"list": {"i": ["1", "1", "1", "1"]}}, "use_cudnn_on_gpu": {"b": true}, "explicit_paddings": {"list": {}}, "padding": {"s": "VkFMSUQ="}, "dilations": {"list": {"i": ["1", "1", "1", "1"]}}, "T": {"type": "DT_FLOAT"}}}, {"name": "SharedFeatureExtractor/resnet_v1_50/block3/unit_3/bottleneck_v1/conv2/BatchToSpaceND", "op": "BatchToSpaceND", "input": ["SharedFeatureExtractor/resnet_v1_50/block3/unit_3/bottleneck_v1/conv2/Conv2D", "SharedFeatureExtractor/resnet_v1_50/block3/unit_1/bottleneck_v1/conv2/SpaceToBatchND/block_shape", "SharedFeatureExtractor/resnet_v1_50/block3/unit_1/bottleneck_v1/conv2/BatchToSpaceND/crops"], "attr": {"Tblock_shape": {"type": "DT_INT32"}, "Tcrops": {"type": "DT_INT32"}, "T": {"type": "DT_FLOAT"}}}, {"name": "SharedFeatureExtractor/resnet_v1_50/block3/unit_3/bottleneck_v1/conv2/BatchNorm/FusedBatchNorm/Mul", "op": "Mul", "input": ["SharedFeatureExtractor/resnet_v1_50/block3/unit_3/bottleneck_v1/conv2/BatchNorm/FusedBatchNorm/Scaled", "SharedFeatureExtractor/resnet_v1_50/block3/unit_3/bottleneck_v1/conv2/BatchToSpaceND"], "attr": {"T": {"type": "DT_FLOAT"}}}, {"name": "SharedFeatureExtractor/resnet_v1_50/block3/unit_3/bottleneck_v1/conv2/BatchNorm/FusedBatchNorm", "op": "Add", "input": ["SharedFeatureExtractor/resnet_v1_50/block3/unit_3/bottleneck_v1/conv2/BatchNorm/FusedBatchNorm/Mul", "SharedFeatureExtractor/resnet_v1_50/block3/unit_3/bottleneck_v1/conv2/BatchNorm/FusedBatchNorm/Offset"], "attr": {"T": {"type": "DT_FLOAT"}}}, {"name": "SharedFeatureExtractor/resnet_v1_50/block3/unit_3/bottleneck_v1/conv2/Relu", "op": "Relu", "input": ["SharedFeatureExtractor/resnet_v1_50/block3/unit_3/bottleneck_v1/conv2/BatchNorm/FusedBatchNorm"], "attr": {"T": {"type": "DT_FLOAT"}}}, {"name": "SharedFeatureExtractor/resnet_v1_50/block3/unit_3/bottleneck_v1/conv3/BatchNorm/FusedBatchNorm", "op": "_FusedConv2D", "input": ["SharedFeatureExtractor/resnet_v1_50/block3/unit_3/bottleneck_v1/conv2/Relu", "SharedFeatureExtractor/resnet_v1_50/block3/unit_3/bottleneck_v1/conv3/Conv2D_weights", "SharedFeatureExtractor/resnet_v1_50/block3/unit_3/bottleneck_v1/conv3/Conv2D_bn_offset"], "device": "/device:CPU:0", "attr": {"fused_ops": {"list": {"s": ["Qmlhc0FkZA=="]}}, "dilations": {"list": {"i": ["1", "1", "1", "1"]}}, "T": {"type": "DT_FLOAT"}, "strides": {"list": {"i": ["1", "1", "1", "1"]}}, "data_format": {"s": "TkhXQw=="}, "explicit_paddings": {"list": {}}, "use_cudnn_on_gpu": {"b": true}, "num_args": {"i": "1"}, "epsilon": {"f": 0.0}, "padding": {"s": "U0FNRQ=="}}}, {"name": "SharedFeatureExtractor/resnet_v1_50/block3/unit_3/bottleneck_v1/add", "op": "Add", "input": ["SharedFeatureExtractor/resnet_v1_50/block3/unit_2/bottleneck_v1/Relu", "SharedFeatureExtractor/resnet_v1_50/block3/unit_3/bottleneck_v1/conv3/BatchNorm/FusedBatchNorm"], "attr": {"T": {"type": "DT_FLOAT"}}}, {"name": "SharedFeatureExtractor/resnet_v1_50/block3/unit_3/bottleneck_v1/Relu", "op": "Relu", "input": ["SharedFeatureExtractor/resnet_v1_50/block3/unit_3/bottleneck_v1/add"], "attr": {"T": {"type": "DT_FLOAT"}}}, {"name": "SharedFeatureExtractor/resnet_v1_50/block3/unit_4/bottleneck_v1/conv1/Relu", "op": "_FusedConv2D", "input": ["SharedFeatureExtractor/resnet_v1_50/block3/unit_3/bottleneck_v1/Relu", "SharedFeatureExtractor/resnet_v1_50/block3/unit_4/bottleneck_v1/conv1/Conv2D_weights", "SharedFeatureExtractor/resnet_v1_50/block3/unit_4/bottleneck_v1/conv1/Conv2D_bn_offset"], "device": "/device:CPU:0", "attr": {"num_args": {"i": "1"}, "epsilon": {"f": 0.0}, "padding": {"s": "U0FNRQ=="}, "fused_ops": {"list": {"s": ["Qmlhc0FkZA==", "UmVsdQ=="]}}, "dilations": {"list": {"i": ["1", "1", "1", "1"]}}, "T": {"type": "DT_FLOAT"}, "data_format": {"s": "TkhXQw=="}, "strides": {"list": {"i": ["1", "1", "1", "1"]}}, "use_cudnn_on_gpu": {"b": true}, "explicit_paddings": {"list": {}}}}, {"name": "SharedFeatureExtractor/resnet_v1_50/block3/unit_4/bottleneck_v1/conv2/SpaceToBatchND", "op": "SpaceToBatchND", "input": ["SharedFeatureExtractor/resnet_v1_50/block3/unit_4/bottleneck_v1/conv1/Relu", "SharedFeatureExtractor/resnet_v1_50/block3/unit_1/bottleneck_v1/conv2/SpaceToBatchND/block_shape", "SharedFeatureExtractor/resnet_v1_50/block3/unit_1/bottleneck_v1/conv2/SpaceToBatchND/paddings"], "attr": {"Tpaddings": {"type": "DT_INT32"}, "Tblock_shape": {"type": "DT_INT32"}, "T": {"type": "DT_FLOAT"}}}, {"name": "SharedFeatureExtractor/resnet_v1_50/block3/unit_4/bottleneck_v1/conv2/Conv2D", "op": "Conv2D", "input": ["SharedFeatureExtractor/resnet_v1_50/block3/unit_4/bottleneck_v1/conv2/SpaceToBatchND", "SharedFeatureExtractor/resnet_v1_50/block3/unit_4/bottleneck_v1/conv2/weights"], "device": "/device:CPU:0", "attr": {"dilations": {"list": {"i": ["1", "1", "1", "1"]}}, "T": {"type": "DT_FLOAT"}, "data_format": {"s": "TkhXQw=="}, "strides": {"list": {"i": ["1", "1", "1", "1"]}}, "use_cudnn_on_gpu": {"b": true}, "explicit_paddings": {"list": {}}, "padding": {"s": "VkFMSUQ="}}}, {"name": "SharedFeatureExtractor/resnet_v1_50/block3/unit_4/bottleneck_v1/conv2/BatchToSpaceND", "op": "BatchToSpaceND", "input": ["SharedFeatureExtractor/resnet_v1_50/block3/unit_4/bottleneck_v1/conv2/Conv2D", "SharedFeatureExtractor/resnet_v1_50/block3/unit_1/bottleneck_v1/conv2/SpaceToBatchND/block_shape", "SharedFeatureExtractor/resnet_v1_50/block3/unit_1/bottleneck_v1/conv2/BatchToSpaceND/crops"], "attr": {"T": {"type": "DT_FLOAT"}, "Tblock_shape": {"type": "DT_INT32"}, "Tcrops": {"type": "DT_INT32"}}}, {"name": "SharedFeatureExtractor/resnet_v1_50/block3/unit_4/bottleneck_v1/conv2/BatchNorm/FusedBatchNorm/Mul", "op": "Mul", "input": ["SharedFeatureExtractor/resnet_v1_50/block3/unit_4/bottleneck_v1/conv2/BatchNorm/FusedBatchNorm/Scaled", "SharedFeatureExtractor/resnet_v1_50/block3/unit_4/bottleneck_v1/conv2/BatchToSpaceND"], "attr": {"T": {"type": "DT_FLOAT"}}}, {"name": "SharedFeatureExtractor/resnet_v1_50/block3/unit_4/bottleneck_v1/conv2/BatchNorm/FusedBatchNorm", "op": "Add", "input": ["SharedFeatureExtractor/resnet_v1_50/block3/unit_4/bottleneck_v1/conv2/BatchNorm/FusedBatchNorm/Mul", "SharedFeatureExtractor/resnet_v1_50/block3/unit_4/bottleneck_v1/conv2/BatchNorm/FusedBatchNorm/Offset"], "attr": {"T": {"type": "DT_FLOAT"}}}, {"name": "SharedFeatureExtractor/resnet_v1_50/block3/unit_4/bottleneck_v1/conv2/Relu", "op": "Relu", "input": ["SharedFeatureExtractor/resnet_v1_50/block3/unit_4/bottleneck_v1/conv2/BatchNorm/FusedBatchNorm"], "attr": {"T": {"type": "DT_FLOAT"}}}, {"name": "SharedFeatureExtractor/resnet_v1_50/block3/unit_4/bottleneck_v1/conv3/BatchNorm/FusedBatchNorm", "op": "_FusedConv2D", "input": ["SharedFeatureExtractor/resnet_v1_50/block3/unit_4/bottleneck_v1/conv2/Relu", "SharedFeatureExtractor/resnet_v1_50/block3/unit_4/bottleneck_v1/conv3/Conv2D_weights", "SharedFeatureExtractor/resnet_v1_50/block3/unit_4/bottleneck_v1/conv3/Conv2D_bn_offset"], "device": "/device:CPU:0", "attr": {"dilations": {"list": {"i": ["1", "1", "1", "1"]}}, "T": {"type": "DT_FLOAT"}, "strides": {"list": {"i": ["1", "1", "1", "1"]}}, "data_format": {"s": "TkhXQw=="}, "explicit_paddings": {"list": {}}, "use_cudnn_on_gpu": {"b": true}, "num_args": {"i": "1"}, "epsilon": {"f": 0.0}, "padding": {"s": "U0FNRQ=="}, "fused_ops": {"list": {"s": ["Qmlhc0FkZA=="]}}}}, {"name": "SharedFeatureExtractor/resnet_v1_50/block3/unit_4/bottleneck_v1/add", "op": "Add", "input": ["SharedFeatureExtractor/resnet_v1_50/block3/unit_3/bottleneck_v1/Relu", "SharedFeatureExtractor/resnet_v1_50/block3/unit_4/bottleneck_v1/conv3/BatchNorm/FusedBatchNorm"], "attr": {"T": {"type": "DT_FLOAT"}}}, {"name": "SharedFeatureExtractor/resnet_v1_50/block3/unit_4/bottleneck_v1/Relu", "op": "Relu", "input": ["SharedFeatureExtractor/resnet_v1_50/block3/unit_4/bottleneck_v1/add"], "attr": {"T": {"type": "DT_FLOAT"}}}, {"name": "SharedFeatureExtractor/resnet_v1_50/block3/unit_5/bottleneck_v1/conv1/Relu", "op": "_FusedConv2D", "input": ["SharedFeatureExtractor/resnet_v1_50/block3/unit_4/bottleneck_v1/Relu", "SharedFeatureExtractor/resnet_v1_50/block3/unit_5/bottleneck_v1/conv1/Conv2D_weights", "SharedFeatureExtractor/resnet_v1_50/block3/unit_5/bottleneck_v1/conv1/Conv2D_bn_offset"], "device": "/device:CPU:0", "attr": {"num_args": {"i": "1"}, "epsilon": {"f": 0.0}, "padding": {"s": "U0FNRQ=="}, "fused_ops": {"list": {"s": ["Qmlhc0FkZA==", "UmVsdQ=="]}}, "dilations": {"list": {"i": ["1", "1", "1", "1"]}}, "T": {"type": "DT_FLOAT"}, "strides": {"list": {"i": ["1", "1", "1", "1"]}}, "data_format": {"s": "TkhXQw=="}, "use_cudnn_on_gpu": {"b": true}, "explicit_paddings": {"list": {}}}}, {"name": "SharedFeatureExtractor/resnet_v1_50/block3/unit_5/bottleneck_v1/conv2/SpaceToBatchND", "op": "SpaceToBatchND", "input": ["SharedFeatureExtractor/resnet_v1_50/block3/unit_5/bottleneck_v1/conv1/Relu", "SharedFeatureExtractor/resnet_v1_50/block3/unit_1/bottleneck_v1/conv2/SpaceToBatchND/block_shape", "SharedFeatureExtractor/resnet_v1_50/block3/unit_1/bottleneck_v1/conv2/SpaceToBatchND/paddings"], "attr": {"T": {"type": "DT_FLOAT"}, "Tpaddings": {"type": "DT_INT32"}, "Tblock_shape": {"type": "DT_INT32"}}}, {"name": "SharedFeatureExtractor/resnet_v1_50/block3/unit_5/bottleneck_v1/conv2/Conv2D", "op": "Conv2D", "input": ["SharedFeatureExtractor/resnet_v1_50/block3/unit_5/bottleneck_v1/conv2/SpaceToBatchND", "SharedFeatureExtractor/resnet_v1_50/block3/unit_5/bottleneck_v1/conv2/weights"], "device": "/device:CPU:0", "attr": {"dilations": {"list": {"i": ["1", "1", "1", "1"]}}, "T": {"type": "DT_FLOAT"}, "data_format": {"s": "TkhXQw=="}, "strides": {"list": {"i": ["1", "1", "1", "1"]}}, "use_cudnn_on_gpu": {"b": true}, "explicit_paddings": {"list": {}}, "padding": {"s": "VkFMSUQ="}}}, {"name": "SharedFeatureExtractor/resnet_v1_50/block3/unit_5/bottleneck_v1/conv2/BatchToSpaceND", "op": "BatchToSpaceND", "input": ["SharedFeatureExtractor/resnet_v1_50/block3/unit_5/bottleneck_v1/conv2/Conv2D", "SharedFeatureExtractor/resnet_v1_50/block3/unit_1/bottleneck_v1/conv2/SpaceToBatchND/block_shape", "SharedFeatureExtractor/resnet_v1_50/block3/unit_1/bottleneck_v1/conv2/BatchToSpaceND/crops"], "attr": {"Tcrops": {"type": "DT_INT32"}, "T": {"type": "DT_FLOAT"}, "Tblock_shape": {"type": "DT_INT32"}}}, {"name": "SharedFeatureExtractor/resnet_v1_50/block3/unit_5/bottleneck_v1/conv2/BatchNorm/FusedBatchNorm/Mul", "op": "Mul", "input": ["SharedFeatureExtractor/resnet_v1_50/block3/unit_5/bottleneck_v1/conv2/BatchNorm/FusedBatchNorm/Scaled", "SharedFeatureExtractor/resnet_v1_50/block3/unit_5/bottleneck_v1/conv2/BatchToSpaceND"], "attr": {"T": {"type": "DT_FLOAT"}}}, {"name": "SharedFeatureExtractor/resnet_v1_50/block3/unit_5/bottleneck_v1/conv2/BatchNorm/FusedBatchNorm", "op": "Add", "input": ["SharedFeatureExtractor/resnet_v1_50/block3/unit_5/bottleneck_v1/conv2/BatchNorm/FusedBatchNorm/Mul", "SharedFeatureExtractor/resnet_v1_50/block3/unit_5/bottleneck_v1/conv2/BatchNorm/FusedBatchNorm/Offset"], "attr": {"T": {"type": "DT_FLOAT"}}}, {"name": "SharedFeatureExtractor/resnet_v1_50/block3/unit_5/bottleneck_v1/conv2/Relu", "op": "Relu", "input": ["SharedFeatureExtractor/resnet_v1_50/block3/unit_5/bottleneck_v1/conv2/BatchNorm/FusedBatchNorm"], "attr": {"T": {"type": "DT_FLOAT"}}}, {"name": "SharedFeatureExtractor/resnet_v1_50/block3/unit_5/bottleneck_v1/conv3/BatchNorm/FusedBatchNorm", "op": "_FusedConv2D", "input": ["SharedFeatureExtractor/resnet_v1_50/block3/unit_5/bottleneck_v1/conv2/Relu", "SharedFeatureExtractor/resnet_v1_50/block3/unit_5/bottleneck_v1/conv3/Conv2D_weights", "SharedFeatureExtractor/resnet_v1_50/block3/unit_5/bottleneck_v1/conv3/Conv2D_bn_offset"], "device": "/device:CPU:0", "attr": {"dilations": {"list": {"i": ["1", "1", "1", "1"]}}, "T": {"type": "DT_FLOAT"}, "strides": {"list": {"i": ["1", "1", "1", "1"]}}, "data_format": {"s": "TkhXQw=="}, "use_cudnn_on_gpu": {"b": true}, "explicit_paddings": {"list": {}}, "num_args": {"i": "1"}, "epsilon": {"f": 0.0}, "padding": {"s": "U0FNRQ=="}, "fused_ops": {"list": {"s": ["Qmlhc0FkZA=="]}}}}, {"name": "SharedFeatureExtractor/resnet_v1_50/block3/unit_5/bottleneck_v1/add", "op": "Add", "input": ["SharedFeatureExtractor/resnet_v1_50/block3/unit_4/bottleneck_v1/Relu", "SharedFeatureExtractor/resnet_v1_50/block3/unit_5/bottleneck_v1/conv3/BatchNorm/FusedBatchNorm"], "attr": {"T": {"type": "DT_FLOAT"}}}, {"name": "SharedFeatureExtractor/resnet_v1_50/block3/unit_5/bottleneck_v1/Relu", "op": "Relu", "input": ["SharedFeatureExtractor/resnet_v1_50/block3/unit_5/bottleneck_v1/add"], "attr": {"T": {"type": "DT_FLOAT"}}}, {"name": "SharedFeatureExtractor/resnet_v1_50/block3/unit_6/bottleneck_v1/conv1/Relu", "op": "_FusedConv2D", "input": ["SharedFeatureExtractor/resnet_v1_50/block3/unit_5/bottleneck_v1/Relu", "SharedFeatureExtractor/resnet_v1_50/block3/unit_6/bottleneck_v1/conv1/Conv2D_weights", "SharedFeatureExtractor/resnet_v1_50/block3/unit_6/bottleneck_v1/conv1/Conv2D_bn_offset"], "device": "/device:CPU:0", "attr": {"data_format": {"s": "TkhXQw=="}, "strides": {"list": {"i": ["1", "1", "1", "1"]}}, "use_cudnn_on_gpu": {"b": true}, "explicit_paddings": {"list": {}}, "num_args": {"i": "1"}, "epsilon": {"f": 0.0}, "padding": {"s": "U0FNRQ=="}, "fused_ops": {"list": {"s": ["Qmlhc0FkZA==", "UmVsdQ=="]}}, "dilations": {"list": {"i": ["1", "1", "1", "1"]}}, "T": {"type": "DT_FLOAT"}}}, {"name": "SharedFeatureExtractor/resnet_v1_50/block3/unit_6/bottleneck_v1/conv2/SpaceToBatchND", "op": "SpaceToBatchND", "input": ["SharedFeatureExtractor/resnet_v1_50/block3/unit_6/bottleneck_v1/conv1/Relu", "SharedFeatureExtractor/resnet_v1_50/block3/unit_1/bottleneck_v1/conv2/SpaceToBatchND/block_shape", "SharedFeatureExtractor/resnet_v1_50/block3/unit_1/bottleneck_v1/conv2/SpaceToBatchND/paddings"], "attr": {"T": {"type": "DT_FLOAT"}, "Tpaddings": {"type": "DT_INT32"}, "Tblock_shape": {"type": "DT_INT32"}}}, {"name": "SharedFeatureExtractor/resnet_v1_50/block3/unit_6/bottleneck_v1/conv2/Conv2D", "op": "Conv2D", "input": ["SharedFeatureExtractor/resnet_v1_50/block3/unit_6/bottleneck_v1/conv2/SpaceToBatchND", "SharedFeatureExtractor/resnet_v1_50/block3/unit_6/bottleneck_v1/conv2/weights"], "device": "/device:CPU:0", "attr": {"dilations": {"list": {"i": ["1", "1", "1", "1"]}}, "T": {"type": "DT_FLOAT"}, "data_format": {"s": "TkhXQw=="}, "strides": {"list": {"i": ["1", "1", "1", "1"]}}, "explicit_paddings": {"list": {}}, "use_cudnn_on_gpu": {"b": true}, "padding": {"s": "VkFMSUQ="}}}, {"name": "SharedFeatureExtractor/resnet_v1_50/block3/unit_6/bottleneck_v1/conv2/BatchToSpaceND", "op": "BatchToSpaceND", "input": ["SharedFeatureExtractor/resnet_v1_50/block3/unit_6/bottleneck_v1/conv2/Conv2D", "SharedFeatureExtractor/resnet_v1_50/block3/unit_1/bottleneck_v1/conv2/SpaceToBatchND/block_shape", "SharedFeatureExtractor/resnet_v1_50/block3/unit_1/bottleneck_v1/conv2/BatchToSpaceND/crops"], "attr": {"Tblock_shape": {"type": "DT_INT32"}, "Tcrops": {"type": "DT_INT32"}, "T": {"type": "DT_FLOAT"}}}, {"name": "SharedFeatureExtractor/resnet_v1_50/block3/unit_6/bottleneck_v1/conv2/BatchNorm/FusedBatchNorm/Mul", "op": "Mul", "input": ["SharedFeatureExtractor/resnet_v1_50/block3/unit_6/bottleneck_v1/conv2/BatchNorm/FusedBatchNorm/Scaled", "SharedFeatureExtractor/resnet_v1_50/block3/unit_6/bottleneck_v1/conv2/BatchToSpaceND"], "attr": {"T": {"type": "DT_FLOAT"}}}, {"name": "SharedFeatureExtractor/resnet_v1_50/block3/unit_6/bottleneck_v1/conv2/BatchNorm/FusedBatchNorm", "op": "Add", "input": ["SharedFeatureExtractor/resnet_v1_50/block3/unit_6/bottleneck_v1/conv2/BatchNorm/FusedBatchNorm/Mul", "SharedFeatureExtractor/resnet_v1_50/block3/unit_6/bottleneck_v1/conv2/BatchNorm/FusedBatchNorm/Offset"], "attr": {"T": {"type": "DT_FLOAT"}}}, {"name": "SharedFeatureExtractor/resnet_v1_50/block3/unit_6/bottleneck_v1/conv2/Relu", "op": "Relu", "input": ["SharedFeatureExtractor/resnet_v1_50/block3/unit_6/bottleneck_v1/conv2/BatchNorm/FusedBatchNorm"], "attr": {"T": {"type": "DT_FLOAT"}}}, {"name": "SharedFeatureExtractor/resnet_v1_50/block3/unit_6/bottleneck_v1/conv3/BatchNorm/FusedBatchNorm", "op": "_FusedConv2D", "input": ["SharedFeatureExtractor/resnet_v1_50/block3/unit_6/bottleneck_v1/conv2/Relu", "SharedFeatureExtractor/resnet_v1_50/block3/unit_6/bottleneck_v1/conv3/Conv2D_weights", "SharedFeatureExtractor/resnet_v1_50/block3/unit_6/bottleneck_v1/conv3/Conv2D_bn_offset"], "device": "/device:CPU:0", "attr": {"dilations": {"list": {"i": ["1", "1", "1", "1"]}}, "T": {"type": "DT_FLOAT"}, "data_format": {"s": "TkhXQw=="}, "strides": {"list": {"i": ["1", "1", "1", "1"]}}, "explicit_paddings": {"list": {}}, "use_cudnn_on_gpu": {"b": true}, "num_args": {"i": "1"}, "epsilon": {"f": 0.0}, "padding": {"s": "U0FNRQ=="}, "fused_ops": {"list": {"s": ["Qmlhc0FkZA=="]}}}}, {"name": "SharedFeatureExtractor/resnet_v1_50/block3/unit_6/bottleneck_v1/add", "op": "Add", "input": ["SharedFeatureExtractor/resnet_v1_50/block3/unit_5/bottleneck_v1/Relu", "SharedFeatureExtractor/resnet_v1_50/block3/unit_6/bottleneck_v1/conv3/BatchNorm/FusedBatchNorm"], "attr": {"T": {"type": "DT_FLOAT"}}}, {"name": "SharedFeatureExtractor/resnet_v1_50/block3/unit_6/bottleneck_v1/Relu", "op": "Relu", "input": ["SharedFeatureExtractor/resnet_v1_50/block3/unit_6/bottleneck_v1/add"], "attr": {"T": {"type": "DT_FLOAT"}}}, {"name": "SharedFeatureExtractor/resnet_v1_50/block4/unit_1/bottleneck_v1/conv1/Relu", "op": "_FusedConv2D", "input": ["SharedFeatureExtractor/resnet_v1_50/block3/unit_6/bottleneck_v1/Relu", "SharedFeatureExtractor/resnet_v1_50/block4/unit_1/bottleneck_v1/conv1/Conv2D_weights", "SharedFeatureExtractor/resnet_v1_50/block4/unit_1/bottleneck_v1/conv1/Conv2D_bn_offset"], "device": "/device:CPU:0", "attr": {"dilations": {"list": {"i": ["1", "1", "1", "1"]}}, "T": {"type": "DT_FLOAT"}, "strides": {"list": {"i": ["1", "1", "1", "1"]}}, "data_format": {"s": "TkhXQw=="}, "use_cudnn_on_gpu": {"b": true}, "explicit_paddings": {"list": {}}, "num_args": {"i": "1"}, "epsilon": {"f": 0.0}, "padding": {"s": "U0FNRQ=="}, "fused_ops": {"list": {"s": ["Qmlhc0FkZA==", "UmVsdQ=="]}}}}, {"name": "SharedFeatureExtractor/resnet_v1_50/block4/unit_1/bottleneck_v1/shortcut/BatchNorm/FusedBatchNorm", "op": "_FusedConv2D", "input": ["SharedFeatureExtractor/resnet_v1_50/block3/unit_6/bottleneck_v1/Relu", "SharedFeatureExtractor/resnet_v1_50/block4/unit_1/bottleneck_v1/shortcut/Conv2D_weights", "SharedFeatureExtractor/resnet_v1_50/block4/unit_1/bottleneck_v1/shortcut/Conv2D_bn_offset"], "device": "/device:CPU:0", "attr": {"T": {"type": "DT_FLOAT"}, "data_format": {"s": "TkhXQw=="}, "strides": {"list": {"i": ["1", "1", "1", "1"]}}, "use_cudnn_on_gpu": {"b": true}, "explicit_paddings": {"list": {}}, "num_args": {"i": "1"}, "epsilon": {"f": 0.0}, "padding": {"s": "U0FNRQ=="}, "fused_ops": {"list": {"s": ["Qmlhc0FkZA=="]}}, "dilations": {"list": {"i": ["1", "1", "1", "1"]}}}}, {"name": "SharedFeatureExtractor/resnet_v1_50/block4/unit_1/bottleneck_v1/conv2/SpaceToBatchND", "op": "SpaceToBatchND", "input": ["SharedFeatureExtractor/resnet_v1_50/block4/unit_1/bottleneck_v1/conv1/Relu", "SharedFeatureExtractor/resnet_v1_50/block4/unit_1/bottleneck_v1/conv2/SpaceToBatchND/block_shape", "SharedFeatureExtractor/resnet_v1_50/block4/unit_1/bottleneck_v1/conv2/SpaceToBatchND/paddings"], "attr": {"T": {"type": "DT_FLOAT"}, "Tpaddings": {"type": "DT_INT32"}, "Tblock_shape": {"type": "DT_INT32"}}}, {"name": "SharedFeatureExtractor/resnet_v1_50/block4/unit_1/bottleneck_v1/conv2/Conv2D", "op": "Conv2D", "input": ["SharedFeatureExtractor/resnet_v1_50/block4/unit_1/bottleneck_v1/conv2/SpaceToBatchND", "SharedFeatureExtractor/resnet_v1_50/block4/unit_1/bottleneck_v1/conv2/weights"], "device": "/device:CPU:0", "attr": {"padding": {"s": "VkFMSUQ="}, "dilations": {"list": {"i": ["1", "1", "1", "1"]}}, "T": {"type": "DT_FLOAT"}, "data_format": {"s": "TkhXQw=="}, "strides": {"list": {"i": ["1", "1", "1", "1"]}}, "use_cudnn_on_gpu": {"b": true}, "explicit_paddings": {"list": {}}}}, {"name": "SharedFeatureExtractor/resnet_v1_50/block4/unit_1/bottleneck_v1/conv2/BatchToSpaceND", "op": "BatchToSpaceND", "input": ["SharedFeatureExtractor/resnet_v1_50/block4/unit_1/bottleneck_v1/conv2/Conv2D", "SharedFeatureExtractor/resnet_v1_50/block4/unit_1/bottleneck_v1/conv2/SpaceToBatchND/block_shape", "SharedFeatureExtractor/resnet_v1_50/block4/unit_1/bottleneck_v1/conv2/BatchToSpaceND/crops"], "attr": {"T": {"type": "DT_FLOAT"}, "Tblock_shape": {"type": "DT_INT32"}, "Tcrops": {"type": "DT_INT32"}}}, {"name": "SharedFeatureExtractor/resnet_v1_50/block4/unit_1/bottleneck_v1/conv2/BatchNorm/FusedBatchNorm/Mul", "op": "Mul", "input": ["SharedFeatureExtractor/resnet_v1_50/block4/unit_1/bottleneck_v1/conv2/BatchNorm/FusedBatchNorm/Scaled", "SharedFeatureExtractor/resnet_v1_50/block4/unit_1/bottleneck_v1/conv2/BatchToSpaceND"], "attr": {"T": {"type": "DT_FLOAT"}}}, {"name": "SharedFeatureExtractor/resnet_v1_50/block4/unit_1/bottleneck_v1/conv2/BatchNorm/FusedBatchNorm", "op": "Add", "input": ["SharedFeatureExtractor/resnet_v1_50/block4/unit_1/bottleneck_v1/conv2/BatchNorm/FusedBatchNorm/Mul", "SharedFeatureExtractor/resnet_v1_50/block4/unit_1/bottleneck_v1/conv2/BatchNorm/FusedBatchNorm/Offset"], "attr": {"T": {"type": "DT_FLOAT"}}}, {"name": "SharedFeatureExtractor/resnet_v1_50/block4/unit_1/bottleneck_v1/conv2/Relu", "op": "Relu", "input": ["SharedFeatureExtractor/resnet_v1_50/block4/unit_1/bottleneck_v1/conv2/BatchNorm/FusedBatchNorm"], "attr": {"T": {"type": "DT_FLOAT"}}}, {"name": "SharedFeatureExtractor/resnet_v1_50/block4/unit_1/bottleneck_v1/conv3/BatchNorm/FusedBatchNorm", "op": "_FusedConv2D", "input": ["SharedFeatureExtractor/resnet_v1_50/block4/unit_1/bottleneck_v1/conv2/Relu", "SharedFeatureExtractor/resnet_v1_50/block4/unit_1/bottleneck_v1/conv3/Conv2D_weights", "SharedFeatureExtractor/resnet_v1_50/block4/unit_1/bottleneck_v1/conv3/Conv2D_bn_offset"], "device": "/device:CPU:0", "attr": {"epsilon": {"f": 0.0}, "padding": {"s": "U0FNRQ=="}, "fused_ops": {"list": {"s": ["Qmlhc0FkZA=="]}}, "dilations": {"list": {"i": ["1", "1", "1", "1"]}}, "T": {"type": "DT_FLOAT"}, "strides": {"list": {"i": ["1", "1", "1", "1"]}}, "data_format": {"s": "TkhXQw=="}, "use_cudnn_on_gpu": {"b": true}, "explicit_paddings": {"list": {}}, "num_args": {"i": "1"}}}, {"name": "SharedFeatureExtractor/resnet_v1_50/block4/unit_1/bottleneck_v1/add", "op": "Add", "input": ["SharedFeatureExtractor/resnet_v1_50/block4/unit_1/bottleneck_v1/conv3/BatchNorm/FusedBatchNorm", "SharedFeatureExtractor/resnet_v1_50/block4/unit_1/bottleneck_v1/shortcut/BatchNorm/FusedBatchNorm"], "attr": {"T": {"type": "DT_FLOAT"}}}, {"name": "SharedFeatureExtractor/resnet_v1_50/block4/unit_1/bottleneck_v1/Relu", "op": "Relu", "input": ["SharedFeatureExtractor/resnet_v1_50/block4/unit_1/bottleneck_v1/add"], "attr": {"T": {"type": "DT_FLOAT"}}}, {"name": "SharedFeatureExtractor/resnet_v1_50/block4/unit_2/bottleneck_v1/conv1/Relu", "op": "_FusedConv2D", "input": ["SharedFeatureExtractor/resnet_v1_50/block4/unit_1/bottleneck_v1/Relu", "SharedFeatureExtractor/resnet_v1_50/block4/unit_2/bottleneck_v1/conv1/Conv2D_weights", "SharedFeatureExtractor/resnet_v1_50/block4/unit_2/bottleneck_v1/conv1/Conv2D_bn_offset"], "device": "/device:CPU:0", "attr": {"num_args": {"i": "1"}, "epsilon": {"f": 0.0}, "padding": {"s": "U0FNRQ=="}, "fused_ops": {"list": {"s": ["Qmlhc0FkZA==", "UmVsdQ=="]}}, "dilations": {"list": {"i": ["1", "1", "1", "1"]}}, "T": {"type": "DT_FLOAT"}, "data_format": {"s": "TkhXQw=="}, "strides": {"list": {"i": ["1", "1", "1", "1"]}}, "explicit_paddings": {"list": {}}, "use_cudnn_on_gpu": {"b": true}}}, {"name": "SharedFeatureExtractor/resnet_v1_50/block4/unit_2/bottleneck_v1/conv2/SpaceToBatchND", "op": "SpaceToBatchND", "input": ["SharedFeatureExtractor/resnet_v1_50/block4/unit_2/bottleneck_v1/conv1/Relu", "SharedFeatureExtractor/resnet_v1_50/block4/unit_1/bottleneck_v1/conv2/SpaceToBatchND/block_shape", "SharedFeatureExtractor/resnet_v1_50/block4/unit_1/bottleneck_v1/conv2/SpaceToBatchND/paddings"], "attr": {"Tpaddings": {"type": "DT_INT32"}, "Tblock_shape": {"type": "DT_INT32"}, "T": {"type": "DT_FLOAT"}}}, {"name": "SharedFeatureExtractor/resnet_v1_50/block4/unit_2/bottleneck_v1/conv2/Conv2D", "op": "Conv2D", "input": ["SharedFeatureExtractor/resnet_v1_50/block4/unit_2/bottleneck_v1/conv2/SpaceToBatchND", "SharedFeatureExtractor/resnet_v1_50/block4/unit_2/bottleneck_v1/conv2/weights"], "device": "/device:CPU:0", "attr": {"padding": {"s": "VkFMSUQ="}, "dilations": {"list": {"i": ["1", "1", "1", "1"]}}, "T": {"type": "DT_FLOAT"}, "data_format": {"s": "TkhXQw=="}, "strides": {"list": {"i": ["1", "1", "1", "1"]}}, "use_cudnn_on_gpu": {"b": true}, "explicit_paddings": {"list": {}}}}, {"name": "SharedFeatureExtractor/resnet_v1_50/block4/unit_2/bottleneck_v1/conv2/BatchToSpaceND", "op": "BatchToSpaceND", "input": ["SharedFeatureExtractor/resnet_v1_50/block4/unit_2/bottleneck_v1/conv2/Conv2D", "SharedFeatureExtractor/resnet_v1_50/block4/unit_1/bottleneck_v1/conv2/SpaceToBatchND/block_shape", "SharedFeatureExtractor/resnet_v1_50/block4/unit_1/bottleneck_v1/conv2/BatchToSpaceND/crops"], "attr": {"Tblock_shape": {"type": "DT_INT32"}, "Tcrops": {"type": "DT_INT32"}, "T": {"type": "DT_FLOAT"}}}, {"name": "SharedFeatureExtractor/resnet_v1_50/block4/unit_2/bottleneck_v1/conv2/BatchNorm/FusedBatchNorm/Mul", "op": "Mul", "input": ["SharedFeatureExtractor/resnet_v1_50/block4/unit_2/bottleneck_v1/conv2/BatchNorm/FusedBatchNorm/Scaled", "SharedFeatureExtractor/resnet_v1_50/block4/unit_2/bottleneck_v1/conv2/BatchToSpaceND"], "attr": {"T": {"type": "DT_FLOAT"}}}, {"name": "SharedFeatureExtractor/resnet_v1_50/block4/unit_2/bottleneck_v1/conv2/BatchNorm/FusedBatchNorm", "op": "Add", "input": ["SharedFeatureExtractor/resnet_v1_50/block4/unit_2/bottleneck_v1/conv2/BatchNorm/FusedBatchNorm/Mul", "SharedFeatureExtractor/resnet_v1_50/block4/unit_2/bottleneck_v1/conv2/BatchNorm/FusedBatchNorm/Offset"], "attr": {"T": {"type": "DT_FLOAT"}}}, {"name": "SharedFeatureExtractor/resnet_v1_50/block4/unit_2/bottleneck_v1/conv2/Relu", "op": "Relu", "input": ["SharedFeatureExtractor/resnet_v1_50/block4/unit_2/bottleneck_v1/conv2/BatchNorm/FusedBatchNorm"], "attr": {"T": {"type": "DT_FLOAT"}}}, {"name": "SharedFeatureExtractor/resnet_v1_50/block4/unit_2/bottleneck_v1/conv3/BatchNorm/FusedBatchNorm", "op": "_FusedConv2D", "input": ["SharedFeatureExtractor/resnet_v1_50/block4/unit_2/bottleneck_v1/conv2/Relu", "SharedFeatureExtractor/resnet_v1_50/block4/unit_2/bottleneck_v1/conv3/Conv2D_weights", "SharedFeatureExtractor/resnet_v1_50/block4/unit_2/bottleneck_v1/conv3/Conv2D_bn_offset"], "device": "/device:CPU:0", "attr": {"T": {"type": "DT_FLOAT"}, "data_format": {"s": "TkhXQw=="}, "strides": {"list": {"i": ["1", "1", "1", "1"]}}, "explicit_paddings": {"list": {}}, "use_cudnn_on_gpu": {"b": true}, "num_args": {"i": "1"}, "epsilon": {"f": 0.0}, "padding": {"s": "U0FNRQ=="}, "fused_ops": {"list": {"s": ["Qmlhc0FkZA=="]}}, "dilations": {"list": {"i": ["1", "1", "1", "1"]}}}}, {"name": "SharedFeatureExtractor/resnet_v1_50/block4/unit_2/bottleneck_v1/add", "op": "Add", "input": ["SharedFeatureExtractor/resnet_v1_50/block4/unit_1/bottleneck_v1/Relu", "SharedFeatureExtractor/resnet_v1_50/block4/unit_2/bottleneck_v1/conv3/BatchNorm/FusedBatchNorm"], "attr": {"T": {"type": "DT_FLOAT"}}}, {"name": "SharedFeatureExtractor/resnet_v1_50/block4/unit_2/bottleneck_v1/Relu", "op": "Relu", "input": ["SharedFeatureExtractor/resnet_v1_50/block4/unit_2/bottleneck_v1/add"], "attr": {"T": {"type": "DT_FLOAT"}}}, {"name": "SharedFeatureExtractor/resnet_v1_50/block4/unit_3/bottleneck_v1/conv1/Relu", "op": "_FusedConv2D", "input": ["SharedFeatureExtractor/resnet_v1_50/block4/unit_2/bottleneck_v1/Relu", "SharedFeatureExtractor/resnet_v1_50/block4/unit_3/bottleneck_v1/conv1/Conv2D_weights", "SharedFeatureExtractor/resnet_v1_50/block4/unit_3/bottleneck_v1/conv1/Conv2D_bn_offset"], "device": "/device:CPU:0", "attr": {"fused_ops": {"list": {"s": ["Qmlhc0FkZA==", "UmVsdQ=="]}}, "dilations": {"list": {"i": ["1", "1", "1", "1"]}}, "T": {"type": "DT_FLOAT"}, "data_format": {"s": "TkhXQw=="}, "strides": {"list": {"i": ["1", "1", "1", "1"]}}, "use_cudnn_on_gpu": {"b": true}, "explicit_paddings": {"list": {}}, "num_args": {"i": "1"}, "epsilon": {"f": 0.0}, "padding": {"s": "U0FNRQ=="}}}, {"name": "SharedFeatureExtractor/resnet_v1_50/block4/unit_3/bottleneck_v1/conv2/SpaceToBatchND", "op": "SpaceToBatchND", "input": ["SharedFeatureExtractor/resnet_v1_50/block4/unit_3/bottleneck_v1/conv1/Relu", "SharedFeatureExtractor/resnet_v1_50/block4/unit_1/bottleneck_v1/conv2/SpaceToBatchND/block_shape", "SharedFeatureExtractor/resnet_v1_50/block4/unit_1/bottleneck_v1/conv2/SpaceToBatchND/paddings"], "attr": {"Tpaddings": {"type": "DT_INT32"}, "Tblock_shape": {"type": "DT_INT32"}, "T": {"type": "DT_FLOAT"}}}, {"name": "SharedFeatureExtractor/resnet_v1_50/block4/unit_3/bottleneck_v1/conv2/Conv2D", "op": "Conv2D", "input": ["SharedFeatureExtractor/resnet_v1_50/block4/unit_3/bottleneck_v1/conv2/SpaceToBatchND", "SharedFeatureExtractor/resnet_v1_50/block4/unit_3/bottleneck_v1/conv2/weights"], "device": "/device:CPU:0", "attr": {"data_format": {"s": "TkhXQw=="}, "strides": {"list": {"i": ["1", "1", "1", "1"]}}, "explicit_paddings": {"list": {}}, "use_cudnn_on_gpu": {"b": true}, "padding": {"s": "VkFMSUQ="}, "dilations": {"list": {"i": ["1", "1", "1", "1"]}}, "T": {"type": "DT_FLOAT"}}}, {"name": "SharedFeatureExtractor/resnet_v1_50/block4/unit_3/bottleneck_v1/conv2/BatchToSpaceND", "op": "BatchToSpaceND", "input": ["SharedFeatureExtractor/resnet_v1_50/block4/unit_3/bottleneck_v1/conv2/Conv2D", "SharedFeatureExtractor/resnet_v1_50/block4/unit_1/bottleneck_v1/conv2/SpaceToBatchND/block_shape", "SharedFeatureExtractor/resnet_v1_50/block4/unit_1/bottleneck_v1/conv2/BatchToSpaceND/crops"], "attr": {"Tcrops": {"type": "DT_INT32"}, "T": {"type": "DT_FLOAT"}, "Tblock_shape": {"type": "DT_INT32"}}}, {"name": "SharedFeatureExtractor/resnet_v1_50/block4/unit_3/bottleneck_v1/conv2/BatchNorm/FusedBatchNorm/Mul", "op": "Mul", "input": ["SharedFeatureExtractor/resnet_v1_50/block4/unit_3/bottleneck_v1/conv2/BatchNorm/FusedBatchNorm/Scaled", "SharedFeatureExtractor/resnet_v1_50/block4/unit_3/bottleneck_v1/conv2/BatchToSpaceND"], "attr": {"T": {"type": "DT_FLOAT"}}}, {"name": "SharedFeatureExtractor/resnet_v1_50/block4/unit_3/bottleneck_v1/conv2/BatchNorm/FusedBatchNorm", "op": "Add", "input": ["SharedFeatureExtractor/resnet_v1_50/block4/unit_3/bottleneck_v1/conv2/BatchNorm/FusedBatchNorm/Mul", "SharedFeatureExtractor/resnet_v1_50/block4/unit_3/bottleneck_v1/conv2/BatchNorm/FusedBatchNorm/Offset"], "attr": {"T": {"type": "DT_FLOAT"}}}, {"name": "SharedFeatureExtractor/resnet_v1_50/block4/unit_3/bottleneck_v1/conv2/Relu", "op": "Relu", "input": ["SharedFeatureExtractor/resnet_v1_50/block4/unit_3/bottleneck_v1/conv2/BatchNorm/FusedBatchNorm"], "attr": {"T": {"type": "DT_FLOAT"}}}, {"name": "SharedFeatureExtractor/resnet_v1_50/block4/unit_3/bottleneck_v1/conv3/BatchNorm/FusedBatchNorm", "op": "_FusedConv2D", "input": ["SharedFeatureExtractor/resnet_v1_50/block4/unit_3/bottleneck_v1/conv2/Relu", "SharedFeatureExtractor/resnet_v1_50/block4/unit_3/bottleneck_v1/conv3/Conv2D_weights", "SharedFeatureExtractor/resnet_v1_50/block4/unit_3/bottleneck_v1/conv3/Conv2D_bn_offset"], "device": "/device:CPU:0", "attr": {"dilations": {"list": {"i": ["1", "1", "1", "1"]}}, "T": {"type": "DT_FLOAT"}, "data_format": {"s": "TkhXQw=="}, "strides": {"list": {"i": ["1", "1", "1", "1"]}}, "explicit_paddings": {"list": {}}, "use_cudnn_on_gpu": {"b": true}, "num_args": {"i": "1"}, "epsilon": {"f": 0.0}, "padding": {"s": "U0FNRQ=="}, "fused_ops": {"list": {"s": ["Qmlhc0FkZA=="]}}}}, {"name": "SharedFeatureExtractor/resnet_v1_50/block4/unit_3/bottleneck_v1/add", "op": "Add", "input": ["SharedFeatureExtractor/resnet_v1_50/block4/unit_2/bottleneck_v1/Relu", "SharedFeatureExtractor/resnet_v1_50/block4/unit_3/bottleneck_v1/conv3/BatchNorm/FusedBatchNorm"], "attr": {"T": {"type": "DT_FLOAT"}}}, {"name": "SharedFeatureExtractor/resnet_v1_50/block4/unit_3/bottleneck_v1/Relu", "op": "Relu", "input": ["SharedFeatureExtractor/resnet_v1_50/block4/unit_3/bottleneck_v1/add"], "attr": {"T": {"type": "DT_FLOAT"}}}, {"name": "FastPSPModule/AvgPool2D/AvgPool", "op": "AvgPool", "input": ["SharedFeatureExtractor/resnet_v1_50/block4/unit_3/bottleneck_v1/Relu"], "attr": {"T": {"type": "DT_FLOAT"}, "strides": {"list": {"i": ["1", "10", "10", "1"]}}, "data_format": {"s": "TkhXQw=="}, "ksize": {"list": {"i": ["1", "10", "10", "1"]}}, "padding": {"s": "VkFMSUQ="}}}, {"name": "FastPSPModule/AvgPool2D_1/AvgPool", "op": "AvgPool", "input": ["SharedFeatureExtractor/resnet_v1_50/block4/unit_3/bottleneck_v1/Relu"], "attr": {"T": {"type": "DT_FLOAT"}, "strides": {"list": {"i": ["1", "5", "5", "1"]}}, "data_format": {"s": "TkhXQw=="}, "ksize": {"list": {"i": ["1", "5", "5", "1"]}}, "padding": {"s": "VkFMSUQ="}}}, {"name": "FastPSPModule/AvgPool2D_2/AvgPool", "op": "AvgPool", "input": ["SharedFeatureExtractor/resnet_v1_50/block4/unit_3/bottleneck_v1/Relu"], "attr": {"ksize": {"list": {"i": ["1", "3", "3", "1"]}}, "padding": {"s": "VkFMSUQ="}, "T": {"type": "DT_FLOAT"}, "strides": {"list": {"i": ["1", "3", "3", "1"]}}, "data_format": {"s": "TkhXQw=="}}}, {"name": "FastPSPModule/AvgPool2D_3/AvgPool", "op": "AvgPool", "input": ["SharedFeatureExtractor/resnet_v1_50/block4/unit_3/bottleneck_v1/Relu"], "attr": {"ksize": {"list": {"i": ["1", "2", "2", "1"]}}, "padding": {"s": "VkFMSUQ="}, "T": {"type": "DT_FLOAT"}, "strides": {"list": {"i": ["1", "2", "2", "1"]}}, "data_format": {"s": "TkhXQw=="}}}, {"name": "FastPSPModule/ResizeBilinear", "op": "ResizeBilinear", "input": ["FastPSPModule/AvgPool2D/AvgPool", "FastPSPModule/ResizeBilinear/size"], "attr": {"align_corners": {"b": true}, "half_pixel_centers": {"b": false}, "T": {"type": "DT_FLOAT"}}}, {"name": "FastPSPModule/ResizeBilinear_1", "op": "ResizeBilinear", "input": ["FastPSPModule/AvgPool2D_1/AvgPool", "FastPSPModule/ResizeBilinear/size"], "attr": {"align_corners": {"b": true}, "half_pixel_centers": {"b": false}, "T": {"type": "DT_FLOAT"}}}, {"name": "FastPSPModule/ResizeBilinear_2", "op": "ResizeBilinear", "input": ["FastPSPModule/AvgPool2D_2/AvgPool", "FastPSPModule/ResizeBilinear/size"], "attr": {"T": {"type": "DT_FLOAT"}, "align_corners": {"b": true}, "half_pixel_centers": {"b": false}}}, {"name": "FastPSPModule/ResizeBilinear_3", "op": "ResizeBilinear", "input": ["FastPSPModule/AvgPool2D_3/AvgPool", "FastPSPModule/ResizeBilinear/size"], "attr": {"align_corners": {"b": true}, "half_pixel_centers": {"b": false}, "T": {"type": "DT_FLOAT"}}}, {"name": "FastPSPModule/ArithmeticOptimizer/AddOpsRewrite_Add_3", "op": "AddN", "input": ["FastPSPModule/ResizeBilinear", "FastPSPModule/ResizeBilinear_1", "FastPSPModule/ResizeBilinear_2", "FastPSPModule/ResizeBilinear_3", "SharedFeatureExtractor/resnet_v1_50/block4/unit_3/bottleneck_v1/Relu"], "attr": {"N": {"i": "5"}, "_grappler_ArithmeticOptimizer_AddOpsRewriteStage": {"b": true}, "T": {"type": "DT_FLOAT"}}}, {"name": "FastPSPModule/Conv/Relu6", "op": "_FusedConv2D", "input": ["FastPSPModule/ArithmeticOptimizer/AddOpsRewrite_Add_3", "FastPSPModule/Conv/Conv2D_weights", "FastPSPModule/Conv/Conv2D_bn_offset"], "device": "/device:CPU:0", "attr": {"dilations": {"list": {"i": ["1", "1", "1", "1"]}}, "T": {"type": "DT_FLOAT"}, "data_format": {"s": "TkhXQw=="}, "strides": {"list": {"i": ["1", "1", "1", "1"]}}, "use_cudnn_on_gpu": {"b": true}, "explicit_paddings": {"list": {}}, "num_args": {"i": "1"}, "epsilon": {"f": 0.0}, "padding": {"s": "U0FNRQ=="}, "fused_ops": {"list": {"s": ["Qmlhc0FkZA==", "UmVsdTY="]}}}}, {"name": "CascadeFeatureFusion/Interp/ResizeBilinear", "op": "ResizeBilinear", "input": ["FastPSPModule/Conv/Relu6", "CascadeFeatureFusion/Interp/ResizeBilinear/size"], "attr": {"align_corners": {"b": true}, "half_pixel_centers": {"b": false}, "T": {"type": "DT_FLOAT"}}}, {"name": "CascadeFeatureFusion/DilatedConv/SpaceToBatchND", "op": "SpaceToBatchND", "input": ["CascadeFeatureFusion/Interp/ResizeBilinear", "CascadeFeatureFusion/DilatedConv/SpaceToBatchND/block_shape", "CascadeFeatureFusion/DilatedConv/SpaceToBatchND/paddings"], "attr": {"Tpaddings": {"type": "DT_INT32"}, "Tblock_shape": {"type": "DT_INT32"}, "T": {"type": "DT_FLOAT"}}}, {"name": "CascadeFeatureFusion/DilatedConv/Conv2D", "op": "Conv2D", "input": ["CascadeFeatureFusion/DilatedConv/SpaceToBatchND", "CascadeFeatureFusion/DilatedConv/weights"], "device": "/device:CPU:0", "attr": {"dilations": {"list": {"i": ["1", "1", "1", "1"]}}, "T": {"type": "DT_FLOAT"}, "data_format": {"s": "TkhXQw=="}, "strides": {"list": {"i": ["1", "1", "1", "1"]}}, "use_cudnn_on_gpu": {"b": true}, "explicit_paddings": {"list": {}}, "padding": {"s": "VkFMSUQ="}}}, {"name": "CascadeFeatureFusion/DilatedConv/BatchToSpaceND", "op": "BatchToSpaceND", "input": ["CascadeFeatureFusion/DilatedConv/Conv2D", "CascadeFeatureFusion/DilatedConv/SpaceToBatchND/block_shape", "CascadeFeatureFusion/DilatedConv/BatchToSpaceND/crops"], "attr": {"Tcrops": {"type": "DT_INT32"}, "T": {"type": "DT_FLOAT"}, "Tblock_shape": {"type": "DT_INT32"}}}, {"name": "CascadeFeatureFusion/DilatedConv/BatchNorm/FusedBatchNorm/Mul", "op": "Mul", "input": ["CascadeFeatureFusion/DilatedConv/BatchNorm/FusedBatchNorm/Scaled", "CascadeFeatureFusion/DilatedConv/BatchToSpaceND"], "attr": {"T": {"type": "DT_FLOAT"}}}, {"name": "CascadeFeatureFusion/DilatedConv/BatchNorm/FusedBatchNorm", "op": "Add", "input": ["CascadeFeatureFusion/DilatedConv/BatchNorm/FusedBatchNorm/Mul", "CascadeFeatureFusion/DilatedConv/BatchNorm/FusedBatchNorm/Offset"], "attr": {"T": {"type": "DT_FLOAT"}}}, {"name": "CascadeFeatureFusion/ResizeBilinear", "op": "ResizeBilinear", "input": ["CascadeFeatureFusion/DilatedConv/BatchNorm/FusedBatchNorm", "CascadeFeatureFusion/strided_slice"], "attr": {"align_corners": {"b": false}, "half_pixel_centers": {"b": false}, "T": {"type": "DT_FLOAT"}}}, {"name": "CascadeFeatureFusion/Add", "op": "Add", "input": ["CascadeFeatureFusion/Conv/BatchNorm/FusedBatchNorm", "CascadeFeatureFusion/ResizeBilinear"], "attr": {"T": {"type": "DT_FLOAT"}}}, {"name": "CascadeFeatureFusion/Relu", "op": "Relu", "input": ["CascadeFeatureFusion/Add"], "attr": {"T": {"type": "DT_FLOAT"}}}, {"name": "CascadeFeatureFusion_1/Interp/ResizeBilinear", "op": "ResizeBilinear", "input": ["CascadeFeatureFusion/Relu", "CascadeFeatureFusion_1/Interp/ResizeBilinear/size"], "attr": {"align_corners": {"b": true}, "half_pixel_centers": {"b": false}, "T": {"type": "DT_FLOAT"}}}, {"name": "CascadeFeatureFusion_1/DilatedConv/SpaceToBatchND", "op": "SpaceToBatchND", "input": ["CascadeFeatureFusion_1/Interp/ResizeBilinear", "CascadeFeatureFusion/DilatedConv/SpaceToBatchND/block_shape", "CascadeFeatureFusion/DilatedConv/SpaceToBatchND/paddings"], "attr": {"T": {"type": "DT_FLOAT"}, "Tpaddings": {"type": "DT_INT32"}, "Tblock_shape": {"type": "DT_INT32"}}}, {"name": "CascadeFeatureFusion_1/DilatedConv/Conv2D", "op": "Conv2D", "input": ["CascadeFeatureFusion_1/DilatedConv/SpaceToBatchND", "CascadeFeatureFusion_1/DilatedConv/weights"], "device": "/device:CPU:0", "attr": {"padding": {"s": "VkFMSUQ="}, "dilations": {"list": {"i": ["1", "1", "1", "1"]}}, "T": {"type": "DT_FLOAT"}, "data_format": {"s": "TkhXQw=="}, "strides": {"list": {"i": ["1", "1", "1", "1"]}}, "explicit_paddings": {"list": {}}, "use_cudnn_on_gpu": {"b": true}}}, {"name": "CascadeFeatureFusion_1/DilatedConv/BatchToSpaceND", "op": "BatchToSpaceND", "input": ["CascadeFeatureFusion_1/DilatedConv/Conv2D", "CascadeFeatureFusion/DilatedConv/SpaceToBatchND/block_shape", "CascadeFeatureFusion/DilatedConv/BatchToSpaceND/crops"], "attr": {"Tcrops": {"type": "DT_INT32"}, "T": {"type": "DT_FLOAT"}, "Tblock_shape": {"type": "DT_INT32"}}}, {"name": "CascadeFeatureFusion_1/DilatedConv/BatchNorm/FusedBatchNorm/Mul", "op": "Mul", "input": ["CascadeFeatureFusion_1/DilatedConv/BatchNorm/FusedBatchNorm/Scaled", "CascadeFeatureFusion_1/DilatedConv/BatchToSpaceND"], "attr": {"T": {"type": "DT_FLOAT"}}}, {"name": "CascadeFeatureFusion_1/DilatedConv/BatchNorm/FusedBatchNorm", "op": "Add", "input": ["CascadeFeatureFusion_1/DilatedConv/BatchNorm/FusedBatchNorm/Mul", "CascadeFeatureFusion_1/DilatedConv/BatchNorm/FusedBatchNorm/Offset"], "attr": {"T": {"type": "DT_FLOAT"}}}, {"name": "CascadeFeatureFusion_1/ResizeBilinear", "op": "ResizeBilinear", "input": ["CascadeFeatureFusion_1/DilatedConv/BatchNorm/FusedBatchNorm", "CascadeFeatureFusion_1/strided_slice"], "attr": {"align_corners": {"b": false}, "half_pixel_centers": {"b": false}, "T": {"type": "DT_FLOAT"}}}, {"name": "CascadeFeatureFusion_1/Add", "op": "Add", "input": ["CascadeFeatureFusion_1/Conv/BatchNorm/FusedBatchNorm", "CascadeFeatureFusion_1/ResizeBilinear"], "attr": {"T": {"type": "DT_FLOAT"}}}, {"name": "CascadeFeatureFusion_1/Relu", "op": "Relu", "input": ["CascadeFeatureFusion_1/Add"], "attr": {"T": {"type": "DT_FLOAT"}}}, {"name": "Interp_1/ResizeBilinear", "op": "ResizeBilinear", "input": ["CascadeFeatureFusion_1/Relu", "Interp_1/ResizeBilinear/size"], "attr": {"align_corners": {"b": true}, "half_pixel_centers": {"b": false}, "T": {"type": "DT_FLOAT"}}}, {"name": "Predictions/Conv/BiasAdd", "op": "_FusedConv2D", "input": ["Interp_1/ResizeBilinear", "Predictions/Conv/weights", "Predictions/Conv/biases"], "device": "/device:CPU:0", "attr": {"epsilon": {"f": 0.0}, "padding": {"s": "U0FNRQ=="}, "fused_ops": {"list": {"s": ["Qmlhc0FkZA=="]}}, "dilations": {"list": {"i": ["1", "1", "1", "1"]}}, "T": {"type": "DT_FLOAT"}, "data_format": {"s": "TkhXQw=="}, "strides": {"list": {"i": ["1", "1", "1", "1"]}}, "explicit_paddings": {"list": {}}, "use_cudnn_on_gpu": {"b": true}, "num_args": {"i": "1"}}}, {"name": "Predictions/Interp/ResizeBilinear", "op": "ResizeBilinear", "input": ["Predictions/Conv/BiasAdd", "Predictions/Interp/ResizeBilinear/size"], "attr": {"align_corners": {"b": true}, "half_pixel_centers": {"b": false}, "T": {"type": "DT_FLOAT"}}}, {"name": "ArgMax", "op": "ArgMax", "input": ["Predictions/Interp/ResizeBilinear", "ArgMax/dimension"], "attr": {"Tidx": {"type": "DT_INT32"}, "T": {"type": "DT_FLOAT"}, "output_type": {"type": "DT_INT64"}}}, {"name": "ExpandDims", "op": "ExpandDims", "input": ["ArgMax", "ExpandDims/dim"], "attr": {"Tdim": {"type": "DT_INT32"}, "T": {"type": "DT_INT64"}}}, {"name": "predictions", "op": "Identity", "input": ["ExpandDims"], "attr": {"T": {"type": "DT_INT64"}}}], "library": {}, "versions": {}}, "weightsManifest": [{"paths": ["group1-shard1of1.bin"], "weights": [{"name": "SharedFeatureExtractor/resnet_v1_50/block4/unit_1/bottleneck_v1/conv2/weights", "shape": [3, 3, 51, 51], "dtype": "float32"}, {"name": "SharedFeatureExtractor/resnet_v1_50/block3/unit_1/bottleneck_v1/conv2/weights", "shape": [3, 3, 25, 25], "dtype": "float32"}, {"name": "FastPSPModule/ResizeBilinear/size", "shape": [2], "dtype": "int32"}, {"name": "SharedFeatureExtractor/resnet_v1_50/block3/unit_2/bottleneck_v1/conv2/weights", "shape": [3, 3, 25, 25], "dtype": "float32"}, {"name": "SharedFeatureExtractor/resnet_v1_50/block3/unit_3/bottleneck_v1/conv2/weights", "shape": [3, 3, 25, 25], "dtype": "float32"}, {"name": "SharedFeatureExtractor/resnet_v1_50/block3/unit_4/bottleneck_v1/conv2/weights", "shape": [3, 3, 25, 25], "dtype": "float32"}, {"name": "SharedFeatureExtractor/resnet_v1_50/block3/unit_5/bottleneck_v1/conv2/weights", "shape": [3, 3, 25, 25], "dtype": "float32"}, {"name": "SharedFeatureExtractor/resnet_v1_50/block3/unit_1/bottleneck_v1/conv2/SpaceToBatchND/paddings", "shape": [2, 2], "dtype": "int32"}, {"name": "SharedFeatureExtractor/resnet_v1_50/block3/unit_6/bottleneck_v1/conv2/weights", "shape": [3, 3, 25, 25], "dtype": "float32"}, {"name": "SharedFeatureExtractor/resnet_v1_50/block3/unit_1/bottleneck_v1/conv2/SpaceToBatchND/block_shape", "shape": [2], "dtype": "int32"}, {"name": "SharedFeatureExtractor/resnet_v1_50/block3/unit_1/bottleneck_v1/conv2/BatchToSpaceND/crops", "shape": [2, 2], "dtype": "int32"}, {"name": "SharedFeatureExtractor/resnet_v1_50/block4/unit_2/bottleneck_v1/conv2/weights", "shape": [3, 3, 51, 51], "dtype": "float32"}, {"name": "SharedFeatureExtractor/resnet_v1_50/block4/unit_1/bottleneck_v1/conv2/SpaceToBatchND/paddings", "shape": [2, 2], "dtype": "int32"}, {"name": "SharedFeatureExtractor/resnet_v1_50/block4/unit_3/bottleneck_v1/conv2/weights", "shape": [3, 3, 51, 51], "dtype": "float32"}, {"name": "SharedFeatureExtractor/resnet_v1_50/block4/unit_1/bottleneck_v1/conv2/SpaceToBatchND/block_shape", "shape": [2], "dtype": "int32"}, {"name": "SharedFeatureExtractor/resnet_v1_50/block4/unit_1/bottleneck_v1/conv2/BatchToSpaceND/crops", "shape": [2, 2], "dtype": "int32"}, {"name": "CascadeFeatureFusion/Interp/ResizeBilinear/size", "shape": [2], "dtype": "int32"}, {"name": "CascadeFeatureFusion/DilatedConv/weights", "shape": [3, 3, 51, 25], "dtype": "float32"}, {"name": "SharedFeatureExtractor/resnet_v1_50/block1/unit_3/bottleneck_v1/Pad/paddings", "shape": [4, 2], "dtype": "int32"}, {"name": "Interp/ResizeBilinear/size", "shape": [2], "dtype": "int32"}, {"name": "SharedFeatureExtractor/resnet_v1_50/Pad/paddings", "shape": [4, 2], "dtype": "int32"}, {"name": "CascadeFeatureFusion_1/Interp/ResizeBilinear/size", "shape": [2], "dtype": "int32"}, {"name": "CascadeFeatureFusion/DilatedConv/SpaceToBatchND/paddings", "shape": [2, 2], "dtype": "int32"}, {"name": "CascadeFeatureFusion_1/DilatedConv/weights", "shape": [3, 3, 25, 25], "dtype": "float32"}, {"name": "CascadeFeatureFusion/DilatedConv/SpaceToBatchND/block_shape", "shape": [2], "dtype": "int32"}, {"name": "CascadeFeatureFusion/DilatedConv/BatchToSpaceND/crops", "shape": [2, 2], "dtype": "int32"}, {"name": "Preprocessor/sub/y", "shape": [1, 1, 3], "dtype": "float32"}, {"name": "CascadeFeatureFusion/strided_slice/stack_1", "shape": [1], "dtype": "int32"}, {"name": "CascadeFeatureFusion/strided_slice/stack", "shape": [1], "dtype": "int32"}, {"name": "Interp_1/ResizeBilinear/size", "shape": [2], "dtype": "int32"}, {"name": "Predictions/Conv/weights", "shape": [1, 1, 25, 2], "dtype": "float32"}, {"name": "Predictions/Conv/biases", "shape": [2], "dtype": "float32"}, {"name": "Predictions/Interp/ResizeBilinear/size", "shape": [2], "dtype": "int32"}, {"name": "ArgMax/dimension", "shape": [], "dtype": "int32"}, {"name": "ExpandDims/dim", "shape": [], "dtype": "int32"}, {"name": "Conv/Conv2D_weights", "shape": [3, 3, 3, 6], "dtype": "float32"}, {"name": "Conv/Conv2D_bn_offset", "shape": [6], "dtype": "float32"}, {"name": "SharedFeatureExtractor/resnet_v1_50/conv1/Conv2D_weights", "shape": [7, 7, 3, 6], "dtype": "float32"}, {"name": "SharedFeatureExtractor/resnet_v1_50/conv1/Conv2D_bn_offset", "shape": [6], "dtype": "float32"}, {"name": "Conv_1/Conv2D_weights", "shape": [3, 3, 6, 6], "dtype": "float32"}, {"name": "Conv_1/Conv2D_bn_offset", "shape": [6], "dtype": "float32"}, {"name": "SharedFeatureExtractor/resnet_v1_50/block1/unit_1/bottleneck_v1/conv1/Conv2D_weights", "shape": [1, 1, 6, 6], "dtype": "float32"}, {"name": "SharedFeatureExtractor/resnet_v1_50/block1/unit_1/bottleneck_v1/conv1/Conv2D_bn_offset", "shape": [6], "dtype": "float32"}, {"name": "CascadeFeatureFusion_1/DilatedConv/BatchNorm/FusedBatchNorm/Scaled", "shape": [25], "dtype": "float32"}, {"name": "SharedFeatureExtractor/resnet_v1_50/block1/unit_1/bottleneck_v1/shortcut/Conv2D_weights", "shape": [1, 1, 6, 25], "dtype": "float32"}, {"name": "SharedFeatureExtractor/resnet_v1_50/block1/unit_1/bottleneck_v1/shortcut/Conv2D_bn_offset", "shape": [25], "dtype": "float32"}, {"name": "Conv_2/Conv2D_weights", "shape": [3, 3, 6, 12], "dtype": "float32"}, {"name": "Conv_2/Conv2D_bn_offset", "shape": [12], "dtype": "float32"}, {"name": "CascadeFeatureFusion_1/DilatedConv/BatchNorm/FusedBatchNorm/Offset", "shape": [25], "dtype": "float32"}, {"name": "SharedFeatureExtractor/resnet_v1_50/block1/unit_1/bottleneck_v1/conv2/Conv2D_weights", "shape": [3, 3, 6, 6], "dtype": "float32"}, {"name": "SharedFeatureExtractor/resnet_v1_50/block1/unit_1/bottleneck_v1/conv2/Conv2D_bn_offset", "shape": [6], "dtype": "float32"}, {"name": "Conv_3/Conv2D_weights", "shape": [3, 3, 12, 25], "dtype": "float32"}, {"name": "Conv_3/Conv2D_bn_offset", "shape": [25], "dtype": "float32"}, {"name": "CascadeFeatureFusion/DilatedConv/BatchNorm/FusedBatchNorm/Scaled", "shape": [25], "dtype": "float32"}, {"name": "SharedFeatureExtractor/resnet_v1_50/block1/unit_1/bottleneck_v1/conv3/Conv2D_weights", "shape": [1, 1, 6, 25], "dtype": "float32"}, {"name": "SharedFeatureExtractor/resnet_v1_50/block1/unit_1/bottleneck_v1/conv3/Conv2D_bn_offset", "shape": [25], "dtype": "float32"}, {"name": "CascadeFeatureFusion_1/Conv/Conv2D_weights", "shape": [1, 1, 25, 25], "dtype": "float32"}, {"name": "CascadeFeatureFusion_1/Conv/Conv2D_bn_offset", "shape": [25], "dtype": "float32"}, {"name": "SharedFeatureExtractor/resnet_v1_50/block1/unit_2/bottleneck_v1/conv1/Conv2D_weights", "shape": [1, 1, 25, 6], "dtype": "float32"}, {"name": "CascadeFeatureFusion/DilatedConv/BatchNorm/FusedBatchNorm/Offset", "shape": [25], "dtype": "float32"}, {"name": "SharedFeatureExtractor/resnet_v1_50/block1/unit_2/bottleneck_v1/conv1/Conv2D_bn_offset", "shape": [6], "dtype": "float32"}, {"name": "SharedFeatureExtractor/resnet_v1_50/block1/unit_2/bottleneck_v1/conv2/Conv2D_weights", "shape": [3, 3, 6, 6], "dtype": "float32"}, {"name": "SharedFeatureExtractor/resnet_v1_50/block1/unit_2/bottleneck_v1/conv2/Conv2D_bn_offset", "shape": [6], "dtype": "float32"}, {"name": "SharedFeatureExtractor/resnet_v1_50/block1/unit_2/bottleneck_v1/conv3/Conv2D_weights", "shape": [1, 1, 6, 25], "dtype": "float32"}, {"name": "SharedFeatureExtractor/resnet_v1_50/block4/unit_3/bottleneck_v1/conv2/BatchNorm/FusedBatchNorm/Scaled", "shape": [51], "dtype": "float32"}, {"name": "SharedFeatureExtractor/resnet_v1_50/block1/unit_2/bottleneck_v1/conv3/Conv2D_bn_offset", "shape": [25], "dtype": "float32"}, {"name": "SharedFeatureExtractor/resnet_v1_50/block1/unit_3/bottleneck_v1/conv1/Conv2D_weights", "shape": [1, 1, 25, 6], "dtype": "float32"}, {"name": "SharedFeatureExtractor/resnet_v1_50/block1/unit_3/bottleneck_v1/conv1/Conv2D_bn_offset", "shape": [6], "dtype": "float32"}, {"name": "SharedFeatureExtractor/resnet_v1_50/block1/unit_3/bottleneck_v1/conv2/Conv2D_weights", "shape": [3, 3, 6, 6], "dtype": "float32"}, {"name": "SharedFeatureExtractor/resnet_v1_50/block4/unit_3/bottleneck_v1/conv2/BatchNorm/FusedBatchNorm/Offset", "shape": [51], "dtype": "float32"}, {"name": "SharedFeatureExtractor/resnet_v1_50/block1/unit_3/bottleneck_v1/conv2/Conv2D_bn_offset", "shape": [6], "dtype": "float32"}, {"name": "SharedFeatureExtractor/resnet_v1_50/block1/unit_3/bottleneck_v1/conv3/Conv2D_weights", "shape": [1, 1, 6, 25], "dtype": "float32"}, {"name": "SharedFeatureExtractor/resnet_v1_50/block1/unit_3/bottleneck_v1/conv3/Conv2D_bn_offset", "shape": [25], "dtype": "float32"}, {"name": "CascadeFeatureFusion/Conv/Conv2D_weights", "shape": [1, 1, 25, 25], "dtype": "float32"}, {"name": "CascadeFeatureFusion/Conv/Conv2D_bn_offset", "shape": [25], "dtype": "float32"}, {"name": "SharedFeatureExtractor/resnet_v1_50/block2/unit_1/bottleneck_v1/conv1/Conv2D_weights", "shape": [1, 1, 25, 12], "dtype": "float32"}, {"name": "SharedFeatureExtractor/resnet_v1_50/block4/unit_2/bottleneck_v1/conv2/BatchNorm/FusedBatchNorm/Scaled", "shape": [51], "dtype": "float32"}, {"name": "SharedFeatureExtractor/resnet_v1_50/block2/unit_1/bottleneck_v1/conv1/Conv2D_bn_offset", "shape": [12], "dtype": "float32"}, {"name": "SharedFeatureExtractor/resnet_v1_50/block2/unit_1/bottleneck_v1/shortcut/Conv2D_weights", "shape": [1, 1, 25, 51], "dtype": "float32"}, {"name": "SharedFeatureExtractor/resnet_v1_50/block2/unit_1/bottleneck_v1/shortcut/Conv2D_bn_offset", "shape": [51], "dtype": "float32"}, {"name": "SharedFeatureExtractor/resnet_v1_50/block2/unit_1/bottleneck_v1/conv2/Conv2D_weights", "shape": [3, 3, 12, 12], "dtype": "float32"}, {"name": "SharedFeatureExtractor/resnet_v1_50/block4/unit_2/bottleneck_v1/conv2/BatchNorm/FusedBatchNorm/Offset", "shape": [51], "dtype": "float32"}, {"name": "SharedFeatureExtractor/resnet_v1_50/block2/unit_1/bottleneck_v1/conv2/Conv2D_bn_offset", "shape": [12], "dtype": "float32"}, {"name": "SharedFeatureExtractor/resnet_v1_50/block2/unit_1/bottleneck_v1/conv3/Conv2D_weights", "shape": [1, 1, 12, 51], "dtype": "float32"}, {"name": "SharedFeatureExtractor/resnet_v1_50/block2/unit_1/bottleneck_v1/conv3/Conv2D_bn_offset", "shape": [51], "dtype": "float32"}, {"name": "SharedFeatureExtractor/resnet_v1_50/block2/unit_2/bottleneck_v1/conv1/Conv2D_weights", "shape": [1, 1, 51, 12], "dtype": "float32"}, {"name": "SharedFeatureExtractor/resnet_v1_50/block2/unit_2/bottleneck_v1/conv1/Conv2D_bn_offset", "shape": [12], "dtype": "float32"}, {"name": "SharedFeatureExtractor/resnet_v1_50/block4/unit_1/bottleneck_v1/conv2/BatchNorm/FusedBatchNorm/Scaled", "shape": [51], "dtype": "float32"}, {"name": "SharedFeatureExtractor/resnet_v1_50/block2/unit_2/bottleneck_v1/conv2/Conv2D_weights", "shape": [3, 3, 12, 12], "dtype": "float32"}, {"name": "SharedFeatureExtractor/resnet_v1_50/block2/unit_2/bottleneck_v1/conv2/Conv2D_bn_offset", "shape": [12], "dtype": "float32"}, {"name": "SharedFeatureExtractor/resnet_v1_50/block2/unit_2/bottleneck_v1/conv3/Conv2D_weights", "shape": [1, 1, 12, 51], "dtype": "float32"}, {"name": "SharedFeatureExtractor/resnet_v1_50/block4/unit_1/bottleneck_v1/conv2/BatchNorm/FusedBatchNorm/Offset", "shape": [51], "dtype": "float32"}, {"name": "SharedFeatureExtractor/resnet_v1_50/block2/unit_2/bottleneck_v1/conv3/Conv2D_bn_offset", "shape": [51], "dtype": "float32"}, {"name": "SharedFeatureExtractor/resnet_v1_50/block2/unit_3/bottleneck_v1/conv1/Conv2D_weights", "shape": [1, 1, 51, 12], "dtype": "float32"}, {"name": "SharedFeatureExtractor/resnet_v1_50/block2/unit_3/bottleneck_v1/conv1/Conv2D_bn_offset", "shape": [12], "dtype": "float32"}, {"name": "SharedFeatureExtractor/resnet_v1_50/block2/unit_3/bottleneck_v1/conv2/Conv2D_weights", "shape": [3, 3, 12, 12], "dtype": "float32"}, {"name": "SharedFeatureExtractor/resnet_v1_50/block2/unit_3/bottleneck_v1/conv2/Conv2D_bn_offset", "shape": [12], "dtype": "float32"}, {"name": "SharedFeatureExtractor/resnet_v1_50/block3/unit_6/bottleneck_v1/conv2/BatchNorm/FusedBatchNorm/Scaled", "shape": [25], "dtype": "float32"}, {"name": "SharedFeatureExtractor/resnet_v1_50/block2/unit_3/bottleneck_v1/conv3/Conv2D_weights", "shape": [1, 1, 12, 51], "dtype": "float32"}, {"name": "SharedFeatureExtractor/resnet_v1_50/block2/unit_3/bottleneck_v1/conv3/Conv2D_bn_offset", "shape": [51], "dtype": "float32"}, {"name": "SharedFeatureExtractor/resnet_v1_50/block2/unit_4/bottleneck_v1/conv1/Conv2D_weights", "shape": [1, 1, 51, 12], "dtype": "float32"}, {"name": "SharedFeatureExtractor/resnet_v1_50/block2/unit_4/bottleneck_v1/conv1/Conv2D_bn_offset", "shape": [12], "dtype": "float32"}, {"name": "SharedFeatureExtractor/resnet_v1_50/block3/unit_6/bottleneck_v1/conv2/BatchNorm/FusedBatchNorm/Offset", "shape": [25], "dtype": "float32"}, {"name": "SharedFeatureExtractor/resnet_v1_50/block2/unit_4/bottleneck_v1/conv2/Conv2D_weights", "shape": [3, 3, 12, 12], "dtype": "float32"}, {"name": "SharedFeatureExtractor/resnet_v1_50/block2/unit_4/bottleneck_v1/conv2/Conv2D_bn_offset", "shape": [12], "dtype": "float32"}, {"name": "SharedFeatureExtractor/resnet_v1_50/block2/unit_4/bottleneck_v1/conv3/Conv2D_weights", "shape": [1, 1, 12, 51], "dtype": "float32"}, {"name": "SharedFeatureExtractor/resnet_v1_50/block2/unit_4/bottleneck_v1/conv3/Conv2D_bn_offset", "shape": [51], "dtype": "float32"}, {"name": "SharedFeatureExtractor/resnet_v1_50/block3/unit_1/bottleneck_v1/conv1/Conv2D_weights", "shape": [1, 1, 51, 25], "dtype": "float32"}, {"name": "SharedFeatureExtractor/resnet_v1_50/block3/unit_5/bottleneck_v1/conv2/BatchNorm/FusedBatchNorm/Scaled", "shape": [25], "dtype": "float32"}, {"name": "SharedFeatureExtractor/resnet_v1_50/block3/unit_1/bottleneck_v1/conv1/Conv2D_bn_offset", "shape": [25], "dtype": "float32"}, {"name": "SharedFeatureExtractor/resnet_v1_50/block3/unit_1/bottleneck_v1/shortcut/Conv2D_weights", "shape": [1, 1, 51, 102], "dtype": "float32"}, {"name": "SharedFeatureExtractor/resnet_v1_50/block3/unit_1/bottleneck_v1/shortcut/Conv2D_bn_offset", "shape": [102], "dtype": "float32"}, {"name": "SharedFeatureExtractor/resnet_v1_50/block3/unit_1/bottleneck_v1/conv3/Conv2D_weights", "shape": [1, 1, 25, 102], "dtype": "float32"}, {"name": "SharedFeatureExtractor/resnet_v1_50/block3/unit_5/bottleneck_v1/conv2/BatchNorm/FusedBatchNorm/Offset", "shape": [25], "dtype": "float32"}, {"name": "SharedFeatureExtractor/resnet_v1_50/block3/unit_1/bottleneck_v1/conv3/Conv2D_bn_offset", "shape": [102], "dtype": "float32"}, {"name": "SharedFeatureExtractor/resnet_v1_50/block3/unit_2/bottleneck_v1/conv1/Conv2D_weights", "shape": [1, 1, 102, 25], "dtype": "float32"}, {"name": "SharedFeatureExtractor/resnet_v1_50/block3/unit_2/bottleneck_v1/conv1/Conv2D_bn_offset", "shape": [25], "dtype": "float32"}, {"name": "SharedFeatureExtractor/resnet_v1_50/block3/unit_2/bottleneck_v1/conv3/Conv2D_weights", "shape": [1, 1, 25, 102], "dtype": "float32"}, {"name": "SharedFeatureExtractor/resnet_v1_50/block3/unit_2/bottleneck_v1/conv3/Conv2D_bn_offset", "shape": [102], "dtype": "float32"}, {"name": "SharedFeatureExtractor/resnet_v1_50/block3/unit_3/bottleneck_v1/conv1/Conv2D_weights", "shape": [1, 1, 102, 25], "dtype": "float32"}, {"name": "SharedFeatureExtractor/resnet_v1_50/block3/unit_4/bottleneck_v1/conv2/BatchNorm/FusedBatchNorm/Scaled", "shape": [25], "dtype": "float32"}, {"name": "SharedFeatureExtractor/resnet_v1_50/block3/unit_3/bottleneck_v1/conv1/Conv2D_bn_offset", "shape": [25], "dtype": "float32"}, {"name": "SharedFeatureExtractor/resnet_v1_50/block3/unit_3/bottleneck_v1/conv3/Conv2D_weights", "shape": [1, 1, 25, 102], "dtype": "float32"}, {"name": "SharedFeatureExtractor/resnet_v1_50/block3/unit_3/bottleneck_v1/conv3/Conv2D_bn_offset", "shape": [102], "dtype": "float32"}, {"name": "SharedFeatureExtractor/resnet_v1_50/block3/unit_4/bottleneck_v1/conv1/Conv2D_weights", "shape": [1, 1, 102, 25], "dtype": "float32"}, {"name": "SharedFeatureExtractor/resnet_v1_50/block3/unit_4/bottleneck_v1/conv2/BatchNorm/FusedBatchNorm/Offset", "shape": [25], "dtype": "float32"}, {"name": "SharedFeatureExtractor/resnet_v1_50/block3/unit_4/bottleneck_v1/conv1/Conv2D_bn_offset", "shape": [25], "dtype": "float32"}, {"name": "SharedFeatureExtractor/resnet_v1_50/block3/unit_4/bottleneck_v1/conv3/Conv2D_weights", "shape": [1, 1, 25, 102], "dtype": "float32"}, {"name": "SharedFeatureExtractor/resnet_v1_50/block3/unit_4/bottleneck_v1/conv3/Conv2D_bn_offset", "shape": [102], "dtype": "float32"}, {"name": "SharedFeatureExtractor/resnet_v1_50/block3/unit_5/bottleneck_v1/conv1/Conv2D_weights", "shape": [1, 1, 102, 25], "dtype": "float32"}, {"name": "SharedFeatureExtractor/resnet_v1_50/block3/unit_5/bottleneck_v1/conv1/Conv2D_bn_offset", "shape": [25], "dtype": "float32"}, {"name": "SharedFeatureExtractor/resnet_v1_50/block3/unit_3/bottleneck_v1/conv2/BatchNorm/FusedBatchNorm/Scaled", "shape": [25], "dtype": "float32"}, {"name": "SharedFeatureExtractor/resnet_v1_50/block3/unit_5/bottleneck_v1/conv3/Conv2D_weights", "shape": [1, 1, 25, 102], "dtype": "float32"}, {"name": "SharedFeatureExtractor/resnet_v1_50/block3/unit_5/bottleneck_v1/conv3/Conv2D_bn_offset", "shape": [102], "dtype": "float32"}, {"name": "SharedFeatureExtractor/resnet_v1_50/block3/unit_6/bottleneck_v1/conv1/Conv2D_weights", "shape": [1, 1, 102, 25], "dtype": "float32"}, {"name": "SharedFeatureExtractor/resnet_v1_50/block3/unit_6/bottleneck_v1/conv1/Conv2D_bn_offset", "shape": [25], "dtype": "float32"}, {"name": "SharedFeatureExtractor/resnet_v1_50/block3/unit_3/bottleneck_v1/conv2/BatchNorm/FusedBatchNorm/Offset", "shape": [25], "dtype": "float32"}, {"name": "SharedFeatureExtractor/resnet_v1_50/block3/unit_6/bottleneck_v1/conv3/Conv2D_weights", "shape": [1, 1, 25, 102], "dtype": "float32"}, {"name": "SharedFeatureExtractor/resnet_v1_50/block3/unit_6/bottleneck_v1/conv3/Conv2D_bn_offset", "shape": [102], "dtype": "float32"}, {"name": "SharedFeatureExtractor/resnet_v1_50/block4/unit_1/bottleneck_v1/conv1/Conv2D_weights", "shape": [1, 1, 102, 51], "dtype": "float32"}, {"name": "SharedFeatureExtractor/resnet_v1_50/block4/unit_1/bottleneck_v1/conv1/Conv2D_bn_offset", "shape": [51], "dtype": "float32"}, {"name": "SharedFeatureExtractor/resnet_v1_50/block4/unit_1/bottleneck_v1/shortcut/Conv2D_weights", "shape": [1, 1, 102, 204], "dtype": "float32"}, {"name": "SharedFeatureExtractor/resnet_v1_50/block3/unit_2/bottleneck_v1/conv2/BatchNorm/FusedBatchNorm/Scaled", "shape": [25], "dtype": "float32"}, {"name": "SharedFeatureExtractor/resnet_v1_50/block4/unit_1/bottleneck_v1/shortcut/Conv2D_bn_offset", "shape": [204], "dtype": "float32"}, {"name": "SharedFeatureExtractor/resnet_v1_50/block4/unit_1/bottleneck_v1/conv3/Conv2D_weights", "shape": [1, 1, 51, 204], "dtype": "float32"}, {"name": "SharedFeatureExtractor/resnet_v1_50/block4/unit_1/bottleneck_v1/conv3/Conv2D_bn_offset", "shape": [204], "dtype": "float32"}, {"name": "SharedFeatureExtractor/resnet_v1_50/block4/unit_2/bottleneck_v1/conv1/Conv2D_weights", "shape": [1, 1, 204, 51], "dtype": "float32"}, {"name": "SharedFeatureExtractor/resnet_v1_50/block4/unit_2/bottleneck_v1/conv1/Conv2D_bn_offset", "shape": [51], "dtype": "float32"}, {"name": "SharedFeatureExtractor/resnet_v1_50/block3/unit_2/bottleneck_v1/conv2/BatchNorm/FusedBatchNorm/Offset", "shape": [25], "dtype": "float32"}, {"name": "SharedFeatureExtractor/resnet_v1_50/block4/unit_2/bottleneck_v1/conv3/Conv2D_weights", "shape": [1, 1, 51, 204], "dtype": "float32"}, {"name": "SharedFeatureExtractor/resnet_v1_50/block4/unit_2/bottleneck_v1/conv3/Conv2D_bn_offset", "shape": [204], "dtype": "float32"}, {"name": "SharedFeatureExtractor/resnet_v1_50/block4/unit_3/bottleneck_v1/conv1/Conv2D_weights", "shape": [1, 1, 204, 51], "dtype": "float32"}, {"name": "SharedFeatureExtractor/resnet_v1_50/block4/unit_3/bottleneck_v1/conv1/Conv2D_bn_offset", "shape": [51], "dtype": "float32"}, {"name": "SharedFeatureExtractor/resnet_v1_50/block4/unit_3/bottleneck_v1/conv3/Conv2D_weights", "shape": [1, 1, 51, 204], "dtype": "float32"}, {"name": "SharedFeatureExtractor/resnet_v1_50/block3/unit_1/bottleneck_v1/conv2/BatchNorm/FusedBatchNorm/Scaled", "shape": [25], "dtype": "float32"}, {"name": "SharedFeatureExtractor/resnet_v1_50/block4/unit_3/bottleneck_v1/conv3/Conv2D_bn_offset", "shape": [204], "dtype": "float32"}, {"name": "FastPSPModule/Conv/Conv2D_weights", "shape": [1, 1, 204, 51], "dtype": "float32"}, {"name": "FastPSPModule/Conv/Conv2D_bn_offset", "shape": [51], "dtype": "float32"}, {"name": "SharedFeatureExtractor/resnet_v1_50/block3/unit_1/bottleneck_v1/conv2/BatchNorm/FusedBatchNorm/Offset", "shape": [25], "dtype": "float32"}]}]}